lstm_model.pth (torch, 204393 bytes, 9 tensors)

lstm.weight_ih_l0 f4 [256, 1]
000000 22 6b 88 bd fd c8 f4 bd 1d f3 ab bd 36 c5 8b 3d
       -0.06661059 -0.11952398 -0.083959796 0.068247244
000010 15 ff 25 bd 96 30 c8 3d 0b cf 18 3e b8 c0 e5 bc
       -0.04052647 0.09774892 0.1492273 -0.028045997
000020 3c 44 ca bd ed f8 13 3d 45 10 ea 3d 05 2d 8f 3d
       -0.09876296 0.036126066 0.114288844 0.06991009
000030 8f c5 8b bd ae c6 d3 3d 66 86 28 bd e7 43 b3 bd
       -0.06824791 0.103406295 -0.041143797 -0.08753186
000040 9d 85 c9 3c 58 40 0f 3e 2c 98 f5 3c e3 da cf 3c
       0.024599845 0.13989389 0.029979788 0.025372928
000050 6c 4c 97 bd 03 91 92 bd 9d 41 3d 3d 04 c1 b8 bd
       -0.07387623 -0.07156565 0.04620515 -0.0902119
000060 6b bd 6e 3d a2 f2 18 3e 67 d8 91 bc 60 b5 c0 bc
       0.05828611 0.14936307 -0.017803384 -0.023523986
000070 ee aa bb bc 99 6c 05 bc 7d 20 19 3e 91 93 0d 3d
       -0.022908654 -0.0081435675 0.149538 0.03456456
000080 40 38 b9 3c 62 39 f2 3d 8d 68 0e bd 6c 35 b9 bc
       0.02260983 0.11827351 -0.034767676 -0.022608481
000090 3e 6b 9d 3d 26 3e 25 bd cb 19 3b bd 36 24 ee bc
       0.076864704 -0.040342472 -0.045678895 -0.029070001
0000a0 52 a6 2b 3d 5a ec ab bd d8 5e e4 3d 7b 6d b2 3b
       0.041906662 -0.0839469 0.111509025 0.00544518
0000b0 a1 94 a0 3d 0f 5e 61 bd 35 b1 f1 3d 32 d9 e2 3d
       0.07840849 -0.055021342 0.11801378 0.11076583
0000c0 9b 26 0b 3c 44 fc e6 bc 92 0e 1e bd 9b a9 dd 3d
       0.008493091 -0.028196461 -0.038588114 0.10823365
0000d0 44 4e 6f bc d6 50 2f 3e db 18 9a 3d a4 95 de bd
       -0.014606062 0.1712068 0.07524272 -0.108683854
0000e0 b6 bc 8d bd 74 58 c7 39 ba e4 fc 3c 74 49 d4 bc
       -0.069207594 0.0003802214 0.030870784 -0.025913931
0000f0 57 94 ac bd e2 7a ae bb d6 81 c5 3c ad c6 dd bc
       -0.08426731 -0.0053247074 0.024109762 -0.027072275
000100 69 55 bd 3d f1 72 b2 3d ea bd af 3d 39 14 04 3e
       0.09244806 0.087133296 0.08581145 0.1289834
000110 8e 00 a1 3d 84 44 e4 bc c5 81 a3 3b 8b c0 11 3e
       0.07861434 -0.027864702 0.004989835 0.14233606
000120 6f 83 f6 bd dc 89 9d bd 3c 87 00 3e ba 3d 04 3e
       -0.12036788 -0.0769231 0.12551588 0.12914172
000130 d8 7a ca bd 21 23 e0 3d 05 8f 5a bd 19 b7 66 3c
       -0.09886712 0.109442 -0.05335905 0.01408174
000140 0e 01 27 be 17 50 85 bd 59 37 5d bd 68 53 1e 3d
       -0.16308996 -0.065094166 -0.05400786 0.03865376
000150 6c 2c 1f bd da 31 a1 bd ec b1 0c bb b7 15 53 bd
       -0.038860723 -0.078708366 -0.0021468354 -0.05153438
000160 90 df 82 3d 2f ef 6f 3d f3 a4 2b 3d a7 0b e2 3d
       0.063902974 0.058577713 0.041905355 0.11037379
000170 92 80 26 3e af a1 fe 3d 51 80 fa 3c 3b f1 74 bc
       0.16259983 0.124331824 0.030578764 -0.014950092
000180 50 c1 4c bd f6 ef 13 3d d4 aa 89 bc a7 95 20 3b
       -0.049989045 0.036117516 -0.01680509 0.0024503262
000190 b4 49 88 bd 08 5c 01 3d e2 e5 13 3e ed 16 92 bc
       -0.06654683 0.03158191 0.14443162 -0.017833197
0001a0 1b a8 a9 bd dd 25 96 3d aa 41 12 bd 41 25 1d 3b
       -0.08284017 0.073314406 -0.035707153 0.0023978504
0001b0 c5 8d 10 3e 00 40 ba bd b4 e9 de 3d 29 ac 16 3e
       0.14116581 -0.09094238 0.10884419 0.14714111
0001c0 bb 4f be 3c 39 54 2b 3e 55 e5 ce ba 0a 2c d2 3d
       0.023231378 0.16731347 -0.0015784899 0.10262306
0001d0 fd 93 74 3d f5 f7 5a 3c 92 05 b4 bd 64 4f 0d bd
       0.059711445 0.013364782 -0.08790125 -0.03449954
0001e0 01 d4 2a 3e 4f ab 84 3d 91 13 09 3c 15 d0 24 3d
       0.16682436 0.06477987 0.008366481 0.040237505
0001f0 95 9d cc bd db 98 d6 bc 30 0b 18 bd be 9b 18 3d
       -0.09990994 -0.026195934 -0.037120044 0.037257902
000200 18 7f b6 bc b3 7d 81 3c 05 b8 98 3d 83 ca 38 be
       -0.0222774 0.015807008 0.07456974 -0.18046002
000210 20 c4 df 3c ee f5 0b 3e 76 0a 33 be 45 d7 24 3e
       0.0273152 0.13668033 -0.1748446 0.16097744
000220 e9 f5 d5 bd 1f e2 2b 3e d9 2f 08 3e 6f 28 46 be
       -0.10447294 0.16785477 0.13299502 -0.19351362
000230 76 b2 a8 3b 16 06 8d 3d ea 9c 01 be 44 2c 19 be
       0.0051482273 0.068859264 -0.12657514 -0.14958292
000240 96 99 05 3e 0b 9f c3 3d a6 46 f5 3c a5 16 8a 3d
       0.1304687 0.095518194 0.029940914 0.067426
000250 bc 4d 09 3e 94 51 0f 3e e6 44 05 3d cc 48 1c 3e
       0.1340856 0.13995963 0.03253641 0.15262145
000260 ca 3e 2b be c7 33 f2 bd b8 56 f8 bc 9e 5d a0 3b
       -0.16723171 -0.11826282 -0.030314788 0.0048939725
000270 15 31 8e bd 24 6d ba 3d 99 b0 13 be 2b 39 c0 3d
       -0.069429554 0.09102848 -0.14422835 0.09385904
000280 41 58 25 3e c8 a4 cc 3b 9e 98 a0 3d a3 64 01 3e
       0.16146947 0.0062452294 0.078416094 0.12636046
000290 69 35 ae 3d 27 47 b0 bc f5 b5 88 3d 94 e4 8c bd
       0.08506281 -0.021518303 0.066753305 -0.06879535
0002a0 75 d8 ce 3d 93 2f 73 bc b3 a6 d2 3c 1c 61 d0 3d
       0.1009988 -0.014842886 0.025714254 0.10174772
0002b0 c4 70 17 3e f5 bb 14 3e 42 14 52 bc 14 72 11 be
       0.1478911 0.14524825 -0.012822213 -0.14203674
0002c0 50 1f 40 3c 39 b1 2a 3e 7c 8e 0f be a2 c1 bf bd
       0.0117262155 0.16669168 -0.14019197 -0.093631044
0002d0 6c de fa 3c e8 d1 03 be bb c5 12 3d 16 38 10 be
       0.030623637 -0.12873042 0.0358331 -0.14083895
0002e0 ce 54 e9 bd 7f 06 12 be 58 03 aa 3d 5f a9 28 bd
       -0.11393128 -0.1426029 0.08301419 -0.04117715
0002f0 71 ae 07 be 48 3f 2d 3d 35 49 e6 bd ee e6 3d be
       -0.13250138 0.042296678 -0.11244432 -0.18545124
000300 40 55 92 bd b4 79 11 bd f6 fd 00 bd 26 61 be 3d
       -0.071451664 -0.035516456 -0.031492196 0.09295873
000310 21 47 c0 3d 4a a2 33 3d a1 3f 89 bd da 70 0d 3e
       0.09388567 0.043855943 -0.067015894 0.1381258
000320 43 96 39 bd c1 f9 1d bd e9 c7 27 3e 96 b0 b3 3d
       -0.045309316 -0.038568262 0.16384853 0.087739155
000330 8d 3b ff 3a 8e 09 72 3c d9 50 17 bd e8 5e 0e 3e
       0.0019472704 0.014772786 -0.036942337 0.13903391
000340 36 71 e0 bd 72 17 1c 3e 4d 40 a2 bd 7c 47 1e 3c
       -0.10959093 0.15243319 -0.07922421 0.009660598
000350 94 2c d7 bd 9f be 14 bc 25 08 a0 bc 75 b8 ba 3d
       -0.105065495 -0.009078651 -0.019535134 0.09117214
000360 8b 7b c1 3c 3a d3 ad 3d 08 8f 1a 3d e7 56 9b bb
       0.02361848 0.08487554 0.03773406 -0.004740584
000370 c4 46 ab 3d 84 e2 04 3d 25 f1 95 3d d1 0b c0 bd
       0.08363107 0.032442585 0.07321385 -0.09377254
000380 f4 e5 b8 bb 96 79 f4 3d 88 d6 ca 3d 65 ea 0d 3e
       -0.005642647 0.11937253 0.099042 0.13858946
000390 48 ea 4c 3d ee ec e1 3d 35 7b 2e 3e 50 e1 7e 3d
       0.050028116 0.11031519 0.17039187 0.062226593
0003a0 11 bb 7b 3d 5a 2c 3c bd 32 0f 89 3d 9d ec d9 bd
       0.061457697 -0.045940734 0.066923514 -0.106408335
0003b0 25 bd d8 3d 5a df 80 bd d5 ed 88 bd 9e 30 99 3d
       0.105829515 -0.06292601 -0.06685988 0.07479976
0003c0 7e b2 f0 bc 88 f7 65 3c 29 c1 05 3e 34 ec 13 3e
       -0.029381987 0.014036067 0.13061966 0.14445573
0003d0 ef e1 ee bd 5a a8 0c 3e b2 e8 3b 3d 3b 96 7f bc
       -0.11664187 0.13736096 0.045876212 -0.015599783
0003e0 9c 57 0e 3e 3e 55 a2 bb 59 b2 e6 3d 24 8b 34 3e
       0.13900608 -0.0049540093 0.11264486 0.17631203
0003f0 6a 18 7f 3c af 41 47 3d 15 52 23 3e f5 be 9a bc
       0.015569786 0.048646625 0.1594928 -0.018889884

lstm.weight_hh_l0 f4 [256, 64]
000000 b8 34 dd 3d dd f1 77 3c a2 98 bd 3d bc 2d b1 bd
       0.10801071 0.015133348 0.09257628 -0.08651301
000010 64 ae e8 3c d6 2b 42 3d c0 57 49 bd 97 6a 40 3d
       0.028403468 0.047405086 -0.04915595 0.046976652
000020 f2 56 f4 bd 12 70 fd 3d 7d 3c 83 3d 11 b6 16 3c
       -0.11930646 0.12374891 0.064080216 0.009198681
000030 4c af af bc f4 a8 62 3b 48 07 71 bd ff e7 db bd
       -0.021445893 0.0034585567 -0.058844835 -0.10737609
000040 10 b8 26 3d a6 75 4a 3b 81 ce 0d bd fb 97 a5 3d
       0.04070288 0.0030892878 -0.034620766 0.080856286
000050 08 a7 bc bd ec 6d ab bc 97 00 02 bd 1e 2a 98 3d
       -0.09211546 -0.020926438 -0.031738844 0.07429908
000060 50 36 7e 3b 5d 46 7d 3d 42 89 c7 bd 15 d9 99 bd
       0.0038789697 0.06183468 -0.09742977 -0.07512108
000070 e7 6b 13 3d a2 67 53 3d ac 38 97 bb 00 a8 b9 3b
       0.035991576 0.051612504 -0.00461491 0.005665779
000080 2f 83 b4 bd ff b2 7d 3d 3b 53 cc 3c 6b b4 f6 3d
       -0.08814084 0.061938282 0.024942031 0.12046131
000090 4d 58 95 3d 7e e4 42 bd 7f 28 f7 bd 4f a3 ab bd
       0.07292233 -0.04758119 -0.12068271 -0.08380758
0000a0 16 12 e3 bc 8c a8 10 be d9 ca f4 bd 86 71 06 3e
       -0.027718585 -0.14126796 -0.119527526 0.13129243
0000b0 ac c7 64 bd d5 c3 63 3d cc 1f d0 bb af 73 cb 3d
       -0.055854484 0.05560668 -0.0063514467 0.09934174
0000c0 cc e8 b5 3c 8e 12 b7 3c 44 48 1c 3b c6 90 8b 3a
       0.022205733 0.022347715 0.0023846785 0.0010648004
0000d0 bf 9b 57 3d 26 aa 82 3d 92 a9 8f bd a8 e9 35 3c
       0.052638765 0.063801095 -0.07014765 0.011103071
0000e0 a9 29 5b 3d 8b 90 7d 3d b8 ee 2e bd dd 06 4e 3d
       0.053506527 0.061905425 -0.04270813 0.050299514
0000f0 7f 24 ad 3c 2b ea 22 3c 9a 16 80 bd 62 3d 9c bd
       0.021135567 0.009943525 -0.06254311 -0.07628895
000100 0b 80 b1 3d 44 99 cb bc 08 74 a3 bd 44 bf af bd
       0.086670004 -0.024853356 -0.079811156 -0.08581403
000110 fe d0 70 3d 6d 40 4e 3d 5a 50 33 bd 5f e4 de 3c
       0.05879306 0.05035441 -0.0437778 0.027208505
000120 92 10 27 3d 65 35 22 bd cd ef bd bc bb 1a f2 bd
       0.040787287 -0.039601702 -0.023185635 -0.11821505
000130 d1 14 95 bc 7b 4c ff 3d bf 8b da 3d 90 4b 8e 3d
       -0.018198403 0.12465759 0.10671186 0.06948006
000140 4d d7 f3 3c d8 fb 93 3d 27 74 3f bd 8f 2e bc 3c
       0.02976575 0.0722577 -0.04674163 0.02297142
000150 f8 fe 21 bd 9e 81 ac bb 98 c2 df 3d 8c 77 7a 3d
       -0.039549798 -0.005264475 0.10925788 0.061149165
000160 c1 0d 29 bd d1 4d 15 3d 9c 00 6d 3c 8c 71 a2 3d
       -0.041272882 0.036451165 0.014465477 0.079318136
000170 6b a0 b0 3d e5 3e 96 3c 2c 4f e5 bd 2d ea a8 bb
       0.08624347 0.018340537 -0.111967415 -0.005154869
000180 9b 47 b3 3d b1 87 61 ba 05 a7 ca 3d a2 87 44 3d
       0.08753892 -0.00086032884 0.09895138 0.047980912
000190 cc 87 e5 bc 8d 43 af 3d b0 01 b2 bd 74 a4 97 3d
       -0.028018855 0.08557806 -0.08691728 0.07404414
0001a0 06 1c b7 3d 1f ec 4d bd 41 dc 12 bb 6b 4e e9 ba
       0.08940892 -0.05027401 -0.0022409114 -0.001779986
0001b0 a9 af 1d 3d 2b 99 05 3e b4 74 aa bd db 09 e5 3d
       0.0384976 0.1304671 -0.083230406 0.111835204
0001c0 18 ce 67 3d 58 23 af 3d 0e 45 d1 3d 9c a1 7d 3d
       0.05659303 0.08551663 0.10218249 0.0619217
0001d0 1d e4 a4 bd de 93 a6 bd 79 9e 99 3d 99 79 b0 bd
       -0.08051322 -0.08133672 0.075009294 -0.08616943
0001e0 ae fa 02 3d 96 99 b6 bd c3 19 2c bd 65 fe b5 3d
       0.031977348 -0.08916013 -0.042016756 0.088864125
0001f0 c2 08 b6 3d af 96 aa bd 3e 60 ee 3d b6 ca 67 3d
       0.08888389 -0.08329522 0.116394505 0.056589805
000200 7f a3 a0 3c 14 fd fc 3c 63 c4 b1 bd 76 e6 d1 bd
       0.019609211 0.030882396 -0.08680036 -0.10249035
000210 25 5f b1 bc 03 2c 38 3d fe 46 75 3d 6c 59 df 3d
       -0.021651814 0.044963848 0.059882157 0.10905728
000220 52 d8 4c 3c c2 f8 38 bd bf aa 92 bd a9 f6 18 b8
       0.012502747 -0.04515911 -0.071614735 -3.6469344e-05
000230 a8 17 23 bc e0 55 86 3d e3 9f 87 3d 87 45 1a bd
       -0.009954371 0.06559348 0.06622293 -0.037663963
000240 20 ab b9 bd 59 1a f0 3d 32 7e 79 ba dd 95 f2 bc
       -0.09065843 0.117237754 -0.0009517401 -0.029612476
000250 71 aa 4b bc ae 86 55 bc c3 02 ec bd 32 bf 0f 3d
       -0.012430773 -0.013032598 -0.11523964 0.035094447
000260 9b e8 fa bd 5c 06 5c bc e3 ca da bd a3 fa b4 bd
       -0.12251397 -0.013429251 -0.10683229 -0.08836868
000270 92 31 7b bd f3 d7 c6 3d 24 40 aa 3d fe ea e1 3d
       -0.06132657 0.09709158 0.08313015 0.11031149
000280 26 ff e7 bd 38 99 da bd 9b 06 6c bd 16 ff a3 bd
       -0.113279626 -0.106737554 -0.057623487 -0.08007638
000290 f1 48 9d bd 5f ff c3 bd 64 96 88 3d f4 59 18 bd
       -0.07679928 -0.095701925 0.0666931 -0.03719516
0002a0 e9 af c4 3d 2a 70 58 3b 5b 64 ea bd 8a a5 a2 bd
       0.09603865 0.003302584 -0.114449225 -0.0794173
0002b0 20 dd f2 3d d3 79 cf bd 47 ce df 3b 77 e6 4c bd
       0.118585825 -0.10130658 0.00683001 -0.050024476
0002c0 df b9 71 3d 4f c9 1d 3b 45 d9 66 bb f9 10 85 bc
       0.05901515 0.0024076288 -0.0035224718 -0.016243445
0002d0 77 c8 35 bc 8c 42 bd 3d 8e ba 28 bb 10 30 67 3b
       -0.011095158 0.092412084 -0.002574596 0.003527645
0002e0 0e 5a e1 3d 1d 6e dc bd 00 3e b4 3d 92 14 81 bd
       0.11003505 -0.1076319 0.08800888 -0.063027516
0002f0 7f 4f 8d 3d aa bd ce 3d 09 08 45 bd 42 f1 15 3d
       0.06899928 0.10094769 -0.048103366 0.036607035
000300 70 40 a1 3d 8a 90 26 bc d9 92 92 3d 28 d6 ca 3d
       0.078736186 -0.010166297 0.07156915 0.09904128
000310 8d cb 83 3b 04 59 05 3e 03 8a 54 3d 86 40 8a 3d
       0.004022068 0.13022238 0.05188943 0.06750588
000320 f1 f8 fb 3d dd 5c a7 bd bf 5e d9 ba 84 8a e2 3d
       0.12303341 -0.08172009 -0.0016584023 0.11061576
000330 6a 1f 35 bd 09 d6 1a 3d 90 0e 7c bd e0 aa 02 be
       -0.044219412 0.037801776 -0.061537325 -0.12760496
000340 f2 f5 d0 3c b6 48 48 bb 64 24 63 3d 70 ab b6 3d
       0.0255079 -0.0030560917 0.055454627 0.08919418
000350 b6 02 56 3c c8 8e 91 bc d8 45 11 be ce d2 b2 3d
       0.01306217 -0.017768279 -0.141868 0.08731614
000360 e1 2f be 3c ee 60 1a bd e6 fa d3 b9 2b 58 a8 3c
       0.02321619 -0.037690096 -0.0004043199 0.020549854
000370 0c 30 49 3d 52 42 d3 bd 4c 62 91 bc 99 0c 0a be
       0.049118087 -0.10315384 -0.017747067 -0.13481368
000380 cd b0 36 3c cf 47 83 bc 73 8c 98 bd 97 cc 00 3e
       0.011150551 -0.016025452 -0.074486636 0.12578045
000390 85 22 a9 bc 08 aa f8 ba 66 b3 08 3e bc c6 e0 bd
       -0.020646343 -0.0018971572 0.13349685 -0.109754056
0003a0 fb cc 18 be 96 7d d0 3d 4f 87 3d 3d f5 2e 0a be
       -0.14921944 0.101802036 0.04627162 -0.13494475
0003b0 40 d2 15 3e e4 44 af bd 21 61 cc bc f2 bb a7 bd
       0.14630985 -0.08558062 -0.024948658 -0.081901446
0003c0 a4 ed cf 3d 72 a6 3a 3d e0 a7 99 bd 6a f6 2a 3d
       0.10152748 0.04556889 -0.07502723 0.041738905
0003d0 86 32 42 3e 2a 9c 86 3b 43 d3 ca 3d 3f 6f b0 3d
       0.18964586 0.0041079717 0.09903576 0.086149685
0003e0 ed e2 f0 bc 51 50 df bd c7 17 6c 3c bb d2 d1 bd
       -0.029405082 -0.10903991 0.014409966 -0.10245272
0003f0 34 a0 a3 bc f9 8c 86 bd 4b 7c 85 bc 9b 90 2a 3d
       -0.019973852 -0.06569857 -0.016294619 0.041641813

lstm.bias_ih_l0 f4 [256]
000000 d9 3e e0 bd 66 2a cb 3d cf b3 84 bd 1d 76 19 bd
       -0.10949487 0.09920196 -0.06479608 -0.037466157
000010 7c 98 8a 3c 4c 3e 9f 3d 35 2a 30 bd 0e 78 0d 3e
       0.016918413 0.07775554 -0.043009 0.13815328
000020 4a 91 9d 3d 71 b1 0a 3e 14 89 68 3d 3b 32 f4 3d
       0.07693727 0.13544251 0.056771353 0.11923643
000030 09 17 88 bc b4 78 b4 bd fa f9 07 3d 8c a5 89 bd
       -0.016612547 -0.08812085 0.03319738 -0.06721029
000040 41 a4 1f bd 56 2a 87 bc 9c be 17 bd 9b 36 36 bc
       -0.038975004 -0.01649968 -0.037047014 -0.011121417
000050 f1 51 8c bc ce aa be bc b4 a4 45 3d f2 42 9c 3d
       -0.017128916 -0.023274805 0.048252776 0.07629956
000060 ac 7d 0c 3e b2 24 c1 3d 9d c7 b0 bc 7d 44 cc bd
       0.13719815 0.09430827 -0.021579558 -0.099740006
000070 5b 9f 43 bc e5 d8 4e ba 14 06 de 3d 33 84 7e bc
       -0.011939849 -0.0007890596 0.10841003 -0.015534448
000080 02 22 87 bd c9 61 58 bc ef 1a e8 bd 28 c9 25 3e
       -0.06598283 -0.013206908 -0.11333262 0.16190016
000090 9f f4 c6 3d 53 36 0a 3c 68 a3 6a 3d 75 db e9 bd
       0.097146265 0.008435803 0.057284743 -0.11418811
0000a0 5f 47 de bd 53 44 01 be db 55 f7 bd f1 c2 48 ba
       -0.10853457 -0.1262372 -0.120769225 -0.0007658443
0000b0 ba ea 0c 3e 36 fa aa 3d 1c 12 1d bd c2 66 75 3b
       0.13761416 0.08348505 -0.03834735 0.0037445282
0000c0 d8 4d af 3b cf 26 74 bd ae 30 9a 3d 07 25 a3 bd
       0.005349856 -0.059607323 0.07528816 -0.07966047
0000d0 a5 b6 f4 3d c7 dc 6a bd 78 f1 c7 bd b7 8c 92 bd
       0.11948899 -0.057339456 -0.097628534 -0.071557455
0000e0 84 c4 19 bc 12 eb 71 bd d2 58 51 3d ec b6 69 bc
       -0.009385232 -0.05906207 0.051110096 -0.014264803
0000f0 64 62 f0 bc d6 2b 99 bd 91 46 fd 3b 6a e6 94 3d
       -0.029343791 -0.07479064 0.0077293594 0.072705105
000100 a0 ee 7c 3c 93 a1 86 bc 09 8c 31 bd 57 e5 d1 3d
       0.015437752 -0.016434466 -0.04334644 0.10248821
000110 5d 1b a1 bd 01 61 d3 bd 65 83 2c bd b0 87 44 bd
       -0.07866547 -0.103212364 -0.042117495 -0.047980964
000120 ef 44 d7 3c 2d a5 01 3e e4 e3 08 3e 26 4e 1b 3d
       0.026277987 0.12660666 0.13368183 0.037916325
000130 d2 bb 5f 3d f6 5f 90 3d cf 92 0e 3c eb bb c7 bb
       0.05462248 0.07049553 0.008701994 -0.0060953996
000140 08 5b 92 3d 2b 56 b9 bd 1f aa d7 ba 9b 96 94 bd
       0.07146269 -0.09049638 -0.0016453898 -0.07255288
000150 c4 20 eb bc d3 77 e0 3d 2f 65 19 bc c9 37 07 3e
       -0.028702147 0.10960355 -0.009362503 0.13204874
000160 b1 90 e4 3d 9b 02 ac bd 9f 6b f6 3d 72 8c 54 bd
       0.1116041 -0.083989345 0.12032246 -0.05189175
000170 b7 92 d9 bd 17 28 a4 3d 80 a9 89 3d 98 45 bd bd
       -0.10623687 0.08015459 0.06721783 -0.092417896
000180 8e b4 9b bd c6 18 a8 bd 18 8f 3e 3b 53 fb 96 bd
       -0.076027974 -0.0820785 0.002907699 -0.07372155
000190 89 00 65 3b d4 18 fb bd 01 a3 a1 3b db 38 07 be
       0.0034942946 -0.12260595 0.0049327617 -0.13205282
0001a0 83 9a c7 3d 3c 68 07 be 0c 2b 08 3d 76 b5 56 bd
       0.09746268 -0.13223356 0.033244178 -0.05241915
0001b0 6c 7f b0 bd cc af b3 3d 53 02 7c 3c 0b 7a 0a 3e
       -0.08618054 0.08773765 0.0153814135 0.13523118
0001c0 22 ea 8f 3c 33 9f ed 3d a3 1e a3 bd 8f e2 e0 bc
       0.017567698 0.116026305 -0.07964828 -0.027451782
0001d0 c7 55 d9 3d 5b d5 c4 bc 40 8e f8 bd d3 28 b3 bd
       0.10612064 -0.024027517 -0.12136507 -0.08748021
0001e0 4b 01 52 3d 1a e2 bc bd 9b c1 cd 3d ee ae c2 3c
       0.051270764 -0.09222813 0.10046693 0.023765054
0001f0 d4 96 80 3d b7 b5 3a bc 06 e8 56 3d fe 96 2d bd
       0.06278768 -0.011395863 0.05246737 -0.042380325
000200 da eb 39 bd 90 36 0e 3d 25 97 1d bd fa 85 e5 3d
       -0.04539094 0.034720004 -0.03847422 0.112071946
000210 5a b2 82 3d a6 94 37 3a a4 6b 01 3e 61 e4 f8 3c
       0.06381674 0.00070030463 0.12638718 0.030382337
000220 b8 f6 60 bd 23 b2 db 3b 27 eb a0 bd 07 75 f5 3c
       -0.05492279 0.006704585 -0.07857352 0.02996303
000230 3d 89 93 3c 09 b5 d7 bd 45 a3 8e 3d a6 4d 10 bc
       0.018009776 -0.105325766 0.06964735 -0.008807575
000240 7b 02 6f bd ef 7e 68 3d 6e fe dd 3d 77 01 81 bd
       -0.058351975 0.05676168 0.10839544 -0.062991075
000250 ad 02 49 bd bf e1 60 3d 39 ca 9e bd 29 5d 3f bd
       -0.049074817 0.05490279 -0.07753415 -0.046719704
000260 2b 46 a1 3b 96 a8 a0 bc 91 c1 ac bc 7a 00 45 bb
       0.0049216948 -0.019611638 -0.021088393 -0.0030060099
000270 7a 2b cf 3d d6 d1 7a 3d 92 3c 58 ba 4b 76 d8 bd
       0.10115714 0.06123527 -0.0008248772 -0.105694376
000280 8f 38 9a 3d 52 c9 ce 3d 1d 61 c2 3d e8 c4 e1 bb
       0.07530319 0.100969926 0.09491179 -0.006889928
000290 b3 98 91 bc 86 4b 24 3d 44 d9 11 3d fe 43 26 bd
       -0.017773008 0.040111087 0.03560759 -0.040592186
0002a0 28 16 e2 bd d7 f4 ef 3c fd 28 f5 3d 53 b2 95 bd
       -0.11039382 0.029291553 0.119707085 -0.07309403
0002b0 25 da 78 bd ca 57 c2 3d 0a ea d6 bd 23 42 c9 bd
       -0.060754914 0.09489401 -0.10493858 -0.09827068
0002c0 d7 a8 88 3d ae 02 d7 3c f7 94 38 bd 54 6c 0b bd
       0.06672829 0.026246395 -0.04506394 -0.034038857
0002d0 67 17 2b bd 53 8a 99 bd ae 34 f4 bd 3e 6d d9 3d
       -0.041770365 -0.074970864 -0.1192411 0.106165394
0002e0 da c5 d1 bd 51 15 a5 bc 7b 1e a3 3d a3 0c ce 3b
       -0.10242815 -0.020151766 0.07964798 0.0062881275
0002f0 22 be ac 3d 5f 1c ad bd 87 36 35 bd fe ca c2 bd
       0.084347025 -0.08452677 -0.044241454 -0.09511374
000300 bc eb f0 3c d3 3e f2 bd ea 52 c5 bd ae c8 0f 3e
       0.029409282 -0.11828389 -0.09634955 0.14041397
000310 01 10 c7 bd 63 b8 89 bd 40 a8 71 3c 13 f9 8a bd
       -0.097198494 -0.06724622 0.014749587 -0.067857884
000320 44 37 e9 bd ad 5c 00 3e f3 d5 4e 3d a7 98 6e 3d
       -0.11387494 0.12535353 0.050497007 0.05825105
000330 2f 9f 0b bd 61 10 8a bd 08 05 b5 3c 7e b2 3b 3c
       -0.034087356 -0.06741405 0.022097126 0.01145613
000340 7e 87 8d 3c 33 75 cb 3d b4 81 24 3d af 82 a0 3d
       0.017276522 0.09934463 0.040162757 0.07837426
000350 ef 2a e9 bc 49 06 65 3d 4a 11 b3 bd 80 ab 97 3c
       -0.028462855 0.055914197 -0.08743532 0.018514395
000360 cf 76 b7 3d 0f 47 8e 3c 9c 2b d6 3d 68 a0 bc 3d
       0.08958208 0.017367868 0.104575366 0.092102826
000370 af 6d 97 3d 44 87 88 3d 06 56 64 3d 04 bb b2 3c
       0.07393967 0.06666425 0.0557461 0.021817692
000380 56 2e f7 bd 19 7e d1 bc fe bb 03 be 5b 02 0e 3e
       -0.12069385 -0.025572823 -0.12864682 0.13868086
000390 4e 44 03 3e 5b 60 a0 bc bc f2 05 3e 8e 9f 0d 3d
       0.12819025 -0.019577196 0.13080877 0.03457599
0003a0 54 19 dd 3d 55 f9 0c bd 2e dc b6 bd f1 b9 49 3d
       0.107958466 -0.03441747 -0.08928715 0.049249593
0003b0 2d f5 63 3c ab 78 ae bc e2 18 bd bd 62 88 54 bd
       0.013913435 -0.021297773 -0.09233262 -0.051887877
0003c0 f9 6c c9 3d ef 43 4b 3d 1a 07 1f 3d d7 4a fb 3d
       0.09835238 0.049625333 0.038825132 0.12270134
0003d0 91 9d 77 bc 2c 48 c6 bd cd 2a c8 3d b0 32 08 bd
       -0.01511325 -0.096817344 0.097737886 -0.033251464
0003e0 c7 13 c8 3d c1 6a df 3c a1 8b 59 3b a9 7d 99 3d
       0.09769397 0.027272584 0.0033194798 0.07494671
0003f0 dc 15 32 bb e3 f1 a3 bd 50 cb f7 3d fd ea 9b bd
       -0.0027173674 -0.080051206 0.12099326 -0.0761318

lstm.bias_hh_l0 f4 [256]
000000 b2 71 71 3d bd 3a 8b 3c 82 5b 93 3c 5b a1 f2 3c
       0.05894632 0.016995782 0.01798797 0.029617956
000010 ef 9d a6 3d 61 36 0e 3e 06 76 3c bc d7 6b 89 3c
       0.08135592 0.13887931 -0.011502748 0.016775055
000020 ea de d8 3d 41 40 9e bd 7e d2 41 bd 26 b8 32 3e
       0.105893925 -0.07727099 -0.04731988 0.1745306
000030 b8 d6 10 bd 15 5f bf 3b 87 8b fe 3d e4 71 e2 3d
       -0.03536102 0.005840192 0.124289565 0.11056879
000040 c1 52 e0 3d 57 ab 07 3e 7e cb e4 3c 0b 45 c3 3d
       0.10953284 0.13248955 0.027929064 0.09534653
000050 13 b4 a7 bd 3c 1b 91 bd 35 70 0a be 03 3b f9 3d
       -0.08188643 -0.07085273 -0.13519366 0.12169459
000060 6e df 1a 3d a9 8d 14 bd 14 17 08 bc a1 c6 9a 3d
       0.037810735 -0.03626791 -0.0083062835 0.07557417
000070 a7 61 98 bd d8 48 d6 bc c2 1e be 3d fe 03 a3 b5
       -0.07440501 -0.026157781 0.0928321 -1.2145608e-06
000080 ac a1 a6 3d 9a 1b e7 bd d7 44 f9 bd a8 ea 24 3e
       0.08136305 -0.112845615 -0.12171333 0.1610514
000090 fd c5 d8 bd 02 cb cd bd 86 d1 08 3d e6 5e 35 3d
       -0.10584638 -0.10048486 0.033402942 0.044279955
0000a0 73 32 75 bd 99 2b 14 bd 97 b1 f6 bd a3 d7 56 bd
       -0.059862565 -0.03617439 -0.12045591 -0.05245174
0000b0 7c c2 a0 3c 5d 9b 5a 3d a7 a7 65 bc b5 5d d5 3c
       0.019623987 0.053370822 -0.014017022 0.02604566
0000c0 11 22 5f 3c 5b ba c0 3d 49 ed 9e 3c 35 4e 62 3c
       0.013618962 0.094105445 0.019400256 0.013812591
0000d0 f7 f6 c3 3d 68 43 93 3d ca 07 01 be d9 3b f8 3d
       0.09568589 0.07190591 -0.12600628 0.1212079
0000e0 25 f2 02 bd c1 1e b8 3c ff 9c 1c 3d e9 43 03 3e
       -0.03196921 0.022475602 0.03823566 0.12818874
0000f0 fa df 13 bd b5 a1 b4 3d a1 2a e6 3d 4f 90 cd 3d
       -0.036102273 0.08819906 0.112385996 0.1003729
000100 42 fe 0f be eb 41 ca b8 a8 bd 79 bd 21 79 ae bd
       -0.14061835 -9.644389e-05 -0.060971886 -0.08519197
000110 e9 a6 0b ba 5e b9 8a 3d ca 44 6b 3d c0 44 c3 bd
       -0.0005327301 0.06773637 0.05743865 -0.095345974
000120 40 e2 4f 3d 05 c3 6b 3d 73 88 94 3d 32 32 52 bd
       0.05075288 0.057559032 0.07252588 -0.0513174
000130 2e ff cd 3b c3 e0 c4 bc f6 4f 0d 3d 03 c7 c0 3d
       0.0062865233 -0.024032956 0.034500085 0.094129585
000140 f4 82 df 3d 96 f1 63 3c 5d 96 0f bd ea 32 a4 bd
       0.10913649 0.013912579 -0.035055507 -0.080175236
000150 3b 07 c1 bd dc b5 25 bd c9 4d f8 bd 01 2f 5f bd
       -0.09425207 -0.040456638 -0.12124211 -0.054488186
000160 80 53 59 3d c7 c6 c9 3d bf 9b aa bb e6 2b 9d bd
       0.053058147 0.09852367 -0.0052065547 -0.076743886
000170 20 99 29 3d be ca 2f 3d d3 8c a4 bd 0e 37 05 be
       0.041405797 0.04291796 -0.080346726 -0.13009283
000180 4e 98 92 3d 10 ef 5e bd 3d dc dd bd 2a 8f 52 3c
       0.07157956 -0.054427207 -0.10833023 0.012851516
000190 e2 b1 b8 bd 37 aa 92 bd 47 ea 19 bd e6 43 c9 3c
       -0.090183035 -0.07161372 -0.03757694 0.02456851
0001a0 5e 8d 96 bc bb e0 ce bd 6c 1c c3 3d c7 0c 11 3e
       -0.018377956 -0.10101458 0.095269054 0.1416503
0001b0 2e ca 86 bd df 6d e6 3b bb f0 48 3d b1 e4 8c 3d
       -0.065815315 0.0070321406 0.049057703 0.06879557
0001c0 a9 88 fb bc c6 31 05 3e c7 ce e8 3d f2 b6 97 3d
       -0.030704813 0.13007268 0.11367565 0.07407941
0001d0 67 e0 da bd c7 44 87 bd a8 a9 4c bd 1d ec b7 3c
       -0.106873326 -0.06604915 -0.049966484 0.022451455
0001e0 b8 77 41 3c 54 0b f8 3d ca 91 27 3d 90 6b b6 bc
       0.011808328 0.12111536 0.04091052 -0.022268087
0001f0 43 4d 8c 3c 76 32 a9 3d be e3 75 bd 88 f9 ef 3d
       0.017126685 0.08261578 -0.060031645 0.11717516
000200 26 03 cb bd d5 52 a5 3c a4 c1 05 bc f2 50 49 bd
       -0.0991271 0.020181099 -0.008163843 -0.04914946
000210 90 39 cf bd 4d c2 e6 bc 06 a1 cf bd 3d 5c d2 bd
       -0.10118401 -0.028168822 -0.10138135 -0.10271499
000220 95 5e dd 3d 33 1e a3 3d e9 f9 83 3d a1 bb 82 3d
       0.10809056 0.079647444 0.06444151 0.063834436
000230 56 48 c5 3c 7c fd 23 3d 48 c5 2c bd 47 11 eb 3d
       0.024082344 0.040036663 -0.04218033 0.11477905
000240 8a 71 53 bc cf b7 7a 3d f1 d1 86 3d f2 ff ba bb
       -0.012905488 0.06121045 0.06583012 -0.0057067806
000250 0e 7f db bd 8f e7 4a 3d 59 63 d7 bd 73 ae 38 3c
       -0.10717593 0.049537238 -0.10516996 0.011272061
000260 4a a0 d9 bd c4 66 04 3d 62 ab dc bd f9 6e 97 3d
       -0.10626276 0.032324567 -0.10774876 0.07394213
000270 59 b4 f3 bc 9a 81 b4 bd b9 c4 42 bd 3c 55 20 bd
       -0.029749082 -0.08813782 -0.04755089 -0.039143786
000280 7b f6 98 3d 94 1f a5 3d 26 87 5c 3b 57 63 89 3b
       0.074688874 0.08062664 0.003364989 0.0041927504
000290 92 f9 ea 3d 15 73 45 3d dc fe 40 3d c1 2f c3 bd
       0.11473383 0.048205454 0.047118053 -0.09530593
0002a0 b2 d8 50 bd 9a da 7f 3d 28 bf 01 3d 63 f4 24 3d
       -0.050987907 0.062464334 0.03167644 0.040272128
0002b0 92 db bb 3d 3c cb e5 bd 48 cf 1d bd 0b 23 0b bd
       0.09172739 -0.112204045 -0.038527757 -0.033968966
0002c0 aa 0f 58 3d f3 54 87 3d fa 39 a3 bc 08 3a 98 bd
       0.052749313 0.06608 -0.019925106 -0.074329436
0002d0 0d 3a d5 3d c8 ee 85 bc dc d0 82 3d 35 22 29 bd
       0.10411463 -0.016349211 0.06387493 -0.041292388
0002e0 9c 03 d6 3d 39 f3 9d ba 4f 66 a6 bd 6c d8 d5 bc
       0.10449907 -0.0012050635 -0.081249826 -0.026104175
0002f0 39 1c d5 3b 67 c2 64 bd 13 52 f4 3b ee 56 2f bc
       0.0065036085 -0.05584946 0.007456073 -0.010701878
000300 94 a9 86 bd 7f 1e 6b 3d 08 ec 9f bb 83 9f 27 bc
       -0.06575313 0.05740213 -0.004880432 -0.010230902
000310 f7 aa c5 bd 77 27 a4 3d 5b 10 0b 3d 60 c2 8f 3d
       -0.096517496 0.0801534 0.033951145 0.07019496
000320 08 f7 d1 3d 12 bf 03 3e b6 63 18 3e 1c 0b b7 3c
       0.102521956 0.12865856 0.14881787 0.022344165
000330 a1 36 dd bd 72 d6 8f bd b8 a6 fc 3d 1d 58 07 bd
       -0.10801435 -0.07023324 0.123364866 -0.033043016
000340 7d 76 d7 bd e8 46 27 bc dc e6 30 3d ef b3 23 3d
       -0.10520647 -0.010209776 0.043188915 0.03996652
000350 41 dc cb bd 93 86 5a bd f6 a7 3c bc 66 3e e2 3d
       -0.099541195 -0.053350996 -0.011514654 0.11047058
000360 e6 f8 d3 bc 7e dd a0 bc c0 a9 69 3d aa 5e 94 3d
       -0.02587552 -0.019636866 0.05704665 0.07244618
000370 1f e5 03 3e ea 3c 98 3d 93 84 dd bc d9 28 01 bd
       0.12880372 0.074334934 -0.027040755 -0.031533096
000380 7a 13 e5 bd dc 3b d3 3d 1e c4 6b 3c 31 64 86 3d
       -0.111853555 0.10314152 0.01439002 0.06562079
000390 ed 92 cc 3c 86 bf 10 be b6 bf c6 bd c1 1f 7b 3d
       0.024972403 -0.1413556 -0.09704535 0.06130958
0003a0 3d 87 18 3d 38 7b bf 3d 36 49 e7 3d 8b 22 e3 3d
       0.03723835 0.09349674 0.11293261 0.11090573
0003b0 0b c9 d6 3d 39 82 e7 3d 08 37 e8 3d 3c 9a a8 bd
       0.10487565 0.11304135 0.113386214 -0.08232543
0003c0 29 f7 a1 3d 1a 2f 13 3e bc 52 72 bd b1 f7 e7 3d
       0.0790847 0.14373437 -0.059160933 0.1132654
0003d0 e9 b8 0e bc b2 e5 24 3c 74 15 a1 bd 89 26 cf 3d
       -0.008711078 0.010064529 -0.0786542 0.10114772
0003e0 91 cd 2e 3c db b6 ac 3d 1f e3 bd bd 6e 7c ab 3d
       0.010669128 0.084333144 -0.092718355 0.083733425
0003f0 f9 67 24 bc ff a2 90 3d 2e e7 03 3e 0f 9b e8 bc
       -0.010034555 0.07062339 0.12881157 -0.02839425

lstm.weight_ih_l1 f4 [256, 64]
000000 b9 98 f6 3d 3e 7f d1 bd fb e2 8d bd bf 43 1f 3e
       0.12040848 -0.10229348 -0.06928059 0.15553187
000010 af 3e b1 bc e9 ef 82 3d 4e b1 c6 3d 04 3e 83 bd
       -0.021636335 0.063934155 0.09701787 -0.06408313
000020 9d 53 8b bd 71 ee 32 bc e2 ef 09 be 98 b8 10 bd
       -0.06803057 -0.010921107 -0.13470414 -0.035332292
000030 3c e0 53 3d 26 91 89 3d 7f 36 8d 3d 9e 8d 37 bd
       0.05172752 0.06717138 0.0689516 -0.04481279
000040 d1 9d 9f bd 74 3f 58 3c 9d a8 15 bd 4e 97 fc 3d
       -0.07793773 0.013198722 -0.036537755 0.123335466
000050 c6 d9 76 bd f5 87 b1 3c fc 2a aa bd b5 15 ba 3c
       -0.06026628 0.021671275 -0.0830898 0.022715429
000060 60 ae 49 bc 63 fb ca bc 88 58 cc bd d4 15 8b bd
       -0.012309641 -0.024778074 -0.099778235 -0.06791273
000070 d4 fd e8 3d ef 4d a0 bd 64 d2 bb bc 5a 95 fc 3d
       0.11376539 -0.07827365 -0.02292747 0.12333174
000080 e1 db 37 bd d4 61 38 bd 60 c4 c0 3d 5e 53 00 be
       -0.044887427 -0.04501517 0.094124556 -0.12531802
000090 c5 a1 96 bd 5b 7c e5 bc 51 b1 a4 bd 4d eb 6b 3b
       -0.07355074 -0.028013399 -0.08041633 0.0035998404
0000a0 c9 3b e7 3d 86 81 f4 bd b0 42 c4 bd c1 7e ac bb
       0.112907 -0.11938767 -0.09583032 -0.0052641337
0000b0 41 af 95 3d 9a ea 41 bd e2 7e d2 3d 42 ff dc 3c
       0.07308818 -0.047342874 0.10278107 0.026977185
0000c0 c2 66 42 3c 69 72 3e 3c 32 8e 49 3d f1 fa a0 bd
       0.01186532 0.011623957 0.049207874 -0.07860363
0000d0 6b 44 65 bd b9 b8 df 3c a5 fc 38 bd c8 af be 3d
       -0.05597345 0.027309762 -0.045162816 0.09310871
0000e0 b0 fe 93 3d 87 ba d8 3c 41 6a 4f 3b f2 0e c1 3d
       0.07226312 0.02645613 0.0031649026 0.09426679
0000f0 58 d6 82 bc b1 4f dc bd a7 46 7b 3c 47 f0 18 bd
       -0.015971348 -0.107573874 0.015336669 -0.03733852
000100 3a 4e 1c bb f8 28 91 3d 51 f7 c4 3b c9 5d 69 bb
       -0.0023850338 0.07087892 0.0060109277 -0.0035608879
000110 0b e3 b0 bb e0 78 89 b9 4b 9d 9d bd 48 ec f4 3d
       -0.0053981594 -0.00026220735 -0.07696017 0.119591296
000120 23 32 85 3d 3f 73 89 3d c8 17 cb 3c bb b9 ca bd
       0.065037034 0.067114346 0.024791613 -0.098987065
000130 0f f8 7e bd 95 ec db bd 9b ee 73 bc a8 cd 3d 3d
       -0.062248286 -0.10738484 -0.014888431 0.046338707
000140 b9 64 c4 bd 8b 79 80 bd 3a 44 92 bd 87 3e d5 bd
       -0.09589524 -0.062731825 -0.071419194 -0.10412317
000150 77 45 4f 3d 9b 87 dd bd e5 9f 80 3d d9 72 de bc
       0.050603356 -0.1081688 0.062804975 -0.027154373
000160 28 9e 0d bd a7 ad 35 3d 4d 4e d8 bd c2 eb 52 3d
       -0.034574658 0.04435506 -0.1056181 0.051494367
000170 6c d7 b5 3b 55 0d cd bd 99 63 eb bd 86 72 6f bd
       0.005549362 -0.100123085 -0.11493606 -0.058458827
000180 a4 79 46 bd 6d 04 86 bd 8b 44 13 bd 1b ca 28 3d
       -0.04845585 -0.06543813 -0.03595404 0.041208368
000190 69 6a ed 3d a9 c2 09 3d 65 f3 00 bd 73 4d e6 bd
       0.11592562 0.033632908 -0.03148212 -0.11245241
0001a0 cc 96 9c bd b3 84 2a bd c5 2a c1 3d 84 70 a0 3c
       -0.0764595 -0.041630458 0.09431986 0.019584902
0001b0 71 1e cc bd a6 22 49 3d ab 4f 18 3d 4f ba 27 bd
       -0.09966744 0.04910531 0.037185352 -0.040949162
0001c0 65 bf f0 3d 00 88 f3 bc da 45 2b 3d ce 92 c4 bc
       0.117552556 -0.029727936 0.041814663 -0.023995783
0001d0 29 7b b5 bc 1f e9 ce bd 6b ec dd bc da 7c 2f 3d
       -0.022153454 -0.10103058 -0.027090272 0.042843677
0001e0 8b 8d 04 be 96 b4 bc 3d dc 53 57 bd 46 66 db bd
       -0.1294462 0.092141315 -0.05257021 -0.107128665
0001f0 d8 e3 88 3d 0d bf 71 bd 86 d0 85 bc 09 a8 01 bd
       0.06684083 -0.05902009 -0.016334783 -0.03165439
000200 73 c0 e4 bc ec 35 b6 3d c1 fc a4 3d 13 8b 72 bb
       -0.027923798 0.088970035 0.080560215 -0.0037009164
000210 94 6f c2 3d 1e 97 e5 3d 39 8a 64 3d 4e 77 22 3e
       0.09493938 0.11210464 0.055795882 0.15865824
000220 6f 6b a0 bd cd e9 f8 bc f5 91 3a 3d 60 20 de 3b
       -0.07832991 -0.030384922 0.04554935 0.0067787617
000230 75 db c2 3d 14 71 2f bc 29 d0 07 be 7e c0 90 bd
       0.09514514 -0.010708112 -0.13263 -0.07067965
000240 61 33 c2 bd e1 59 a2 bd 1b 1c 23 3c bc 23 63 3c
       -0.09482456 -0.07927299 0.009955431 0.0138635
000250 d0 16 88 3c a0 e6 8c 3d 41 2e c1 3d 9a f2 c2 bc
       0.01661244 0.06879926 0.0943265 -0.023797322
000260 db c5 cc 3d 48 15 59 bc 22 15 07 3d 3d 4e 51 3d
       0.099986754 -0.013249703 0.03297914 0.051100004
000270 9e 74 41 3c 5a 0a f5 3d fb e5 fb bd b9 4d b1 3c
       0.011807589 0.11964865 -0.12299725 0.021643506
000280 a3 24 29 bd 0d 9c 07 3e 35 79 eb bd 39 5b a3 3d
       -0.041294705 0.13243122 -0.11497728 0.07976384
000290 ac a0 c5 bd ca e5 20 3d 81 89 18 3d 03 67 88 3c
       -0.09649786 0.039281644 0.03724051 0.016650682
0002a0 61 b7 90 bd 29 bc 00 be 49 09 42 bd e0 c6 ef 3c
       -0.07066227 -0.12571777 -0.047372136 0.029269636
0002b0 ab 3b 82 3d bc 04 25 3d d2 2b f7 3d fa 13 21 bd
       0.06359037 0.04028772 0.12068905 -0.03932569
0002c0 0d 69 b0 bd e1 80 8e 3d 19 6b a5 bd 7c 6e 9f 3d
       -0.08613787 0.069581755 -0.08077068 0.07784745
0002d0 ea 42 12 bd 95 67 11 bd 3a a5 b6 3d 18 36 47 3c
       -0.035708345 -0.035499174 0.08918233 0.012158893
0002e0 d6 bc 0a be f9 43 cf bd 7b 07 a9 3d ff 85 a3 3d
       -0.13548598 -0.10120387 0.0825338 0.07984542
0002f0 bf 59 d8 3c 6b 20 9e 3c 37 4d 80 bd 51 46 c6 bd
       0.026409982 0.019302567 -0.062647276 -0.096813805
000300 81 4d 99 3b 37 58 b2 3d bc cb 9b bd c1 0a 83 3d
       0.0046784286 0.08708232 -0.076072186 0.063985355
000310 55 83 a9 3d e0 0c 73 bd 13 95 fc bd c4 4d 4f bb
       0.08277003 -0.05933845 -0.12333121 -0.0031632045
000320 f5 9b eb bb 16 68 c0 3d 54 30 c9 3d 58 9a 80 bc
       -0.0071902224 0.09394853 0.09823671 -0.015698597
000330 94 9e b2 bd 8f b5 e6 bb 2b cd 3f be 9a ca 2d bd
       -0.087216526 -0.0070406864 -0.18730609 -0.042429544
000340 19 6b 83 3c ec 9a 7a bc 4a 28 cb 3d 3a a7 07 3e
       0.01604228 -0.015295725 0.09919794 0.13247386
000350 70 46 09 3e 4a 4d 85 3d 7f 33 ea 3c 0e c6 f9 3c
       0.13405776 0.06508882 0.028589008 0.030489948
000360 35 d6 b6 bd 37 de 23 be 7c 5c 07 be 47 2e 88 3d
       -0.089275755 -0.16002737 -0.13218874 0.06649452
000370 9e c4 43 3d 81 83 2b bd 3c 54 8b bd e6 81 80 bd
       0.04779493 -0.04187346 -0.06803176 -0.06274776
000380 05 9d ee 3c b2 db 0f 3d 05 72 41 bc 80 f5 2e bd
       0.029127607 0.035121627 -0.0118069695 -0.042714596
000390 2a 9d a8 3d 3a d1 40 3c 79 8d a0 bd cb ee af bd
       0.08233102 0.0117686335 -0.07839484 -0.08590468
0003a0 b6 cc e7 3c e6 54 62 3d 44 54 1a 3d 39 66 90 3c
       0.028295856 0.055256747 0.03767802 0.017626869
0003b0 6f ae c7 bc 39 f3 ef 3d ae 6f 99 bd d7 01 c9 bd
       -0.024375169 0.11716313 -0.07492004 -0.09814804
0003c0 56 43 0b bd 6f 35 39 3d 0b 70 b2 bc 02 8e ab 3c
       -0.033999763 0.045216974 -0.021781942 0.020941738
0003d0 1a f4 47 bd 35 b3 9e 3d 6d 17 13 3d be 75 19 bc
       -0.048816778 0.07749025 0.035911012 -0.009366451
0003e0 65 18 72 3c 9f 91 aa bd 67 b6 e7 3b c5 35 9e 3d
       0.014776324 -0.08328556 0.0070713046 0.077250995
0003f0 a0 5d bd bd a5 a9 49 bd 11 c2 8b 3d b6 be b0 3d
       -0.09246373 -0.04923405 0.068241246 0.08630125

lstm.weight_hh_l1 f4 [256, 64]
000000 36 fa 37 bd 78 a2 e2 3d d9 36 67 bd c9 9e ec 3c
       -0.044916354 0.11066145 -0.05644879 0.028884308
000010 a7 2d 29 3d ec 29 97 bd 3f 5f a6 3d 1c 2e d3 bc
       0.041303303 -0.07381043 0.081236355 -0.025778823
000020 0f 21 e2 bd 41 86 9c 3c 12 66 1c 3b bb 7f a7 bd
       -0.11041462 0.019106986 0.002386455 -0.081786595
000030 2c e3 47 bd dc 09 dc bd 4b b2 46 bd 6a c6 2d 3d
       -0.048800632 -0.10744068 -0.048509877 0.04242555
000040 01 eb c0 bc b5 b9 12 be 4c 54 f5 bd 87 8d a5 bc
       -0.023549559 -0.14328654 -0.11978969 -0.020209087
000050 17 33 47 3d 76 0f ee 3d 05 05 6d bb 61 6f e5 bb
       0.048632707 0.11624043 -0.0036166322 -0.007001803
000060 df 55 6d 3d 22 ac ac bd 25 f3 0d bc aa 91 91 3d
       0.05794322 -0.08431269 -0.008663927 0.07107861
000070 11 92 14 3c 39 48 a0 bd 25 b5 ff 3c c2 49 34 3d
       0.009068028 -0.078262754 0.031214306 0.044015653
000080 8c 1b ae 3c 4a 89 9f 3d 2a 4b cb 3c 67 7d 03 bd
       0.02125337 0.07789858 0.024816114 -0.032102015
000090 dd e5 11 3d d4 48 84 bd 2d 3c c6 bd ba ae d3 bd
       0.035619605 -0.06459203 -0.09679446 -0.10336061
0000a0 94 3e 8a 3d 74 26 ca 3d 95 c4 85 bc a1 0d e8 3d
       0.06750217 0.098706156 -0.01632909 0.113307245
0000b0 5d 9e 4c 3c d5 be 52 bc 7d a2 6b bd 9c 15 e3 bd
       0.012488929 -0.012862881 -0.057528008 -0.11088106
0000c0 9c 87 d3 3c cd fe 66 3d 30 e8 38 3c 79 f8 96 ba
       0.0258215 0.05639534 0.011285827 -0.0011518142
0000d0 61 92 d9 3d 6b 3c 0f 3e 65 09 08 be 7b 2c db bd
       0.10623623 0.13987891 -0.13284834 -0.10701843
0000e0 52 41 62 bd 73 97 60 bd 12 4a d4 bd 8b 5a 0e be
       -0.055238076 -0.054831933 -0.1036569 -0.13901727
0000f0 80 c6 fd bd 01 d3 14 3e fd ca 04 3e 72 55 22 bd
       -0.123913765 0.14533617 0.12968059 -0.03963227
000100 65 60 c3 bb a0 b6 9d bd b8 27 0b bd 34 fa 9f bd
       -0.005962419 -0.077008486 -0.033973426 -0.07811394
000110 df 3e 31 3c c3 1d 8b bb 70 75 9c 3c b5 30 87 bd
       0.010818212 -0.004245491 0.019098967 -0.06601087
000120 f4 1b fc 3d ae 63 ad 3d 11 df dd bd 87 59 d5 3d
       0.12310019 0.08466278 -0.10833562 0.104174666
000130 42 53 aa bc 95 13 61 bd 8c fb f7 bd 6b e6 b0 bd
       -0.020791654 -0.054950316 -0.12108526 -0.08637699
000140 f1 18 d6 bd 5a 5d 07 be 7e b7 bb bc 09 11 4a bd
       -0.10453976 -0.13219205 -0.022914644 -0.049332652
000150 a6 01 92 3b 91 31 dc 3d da 0b 63 3d 79 ca 1c bd
       0.004455763 0.107516415 0.055431224 -0.03827903
000160 ec 42 b0 bc 96 d0 d1 3d 98 64 d3 3c 8c 11 e4 bc
       -0.021516286 0.10244863 0.025804803 -0.027840398
000170 8c a6 ab 3d 97 c2 2b be 44 3e af bd 78 79 e9 3d
       0.08381376 -0.16773449 -0.08556798 0.114001215
000180 db da d6 3c 2c 2a 28 3d 4a ec 98 bd 09 62 c7 3c
       0.026227405 0.041055843 -0.074669436 0.024338739
000190 2e bf 2e 3d 74 4b b3 bd 21 db 82 bd 9c b6 a5 bd
       0.042662792 -0.08754626 -0.06389452 -0.080914706
0001a0 7b 05 07 3c 83 cf ee 3c 87 89 0f bd f9 1d a5 bd
       0.008241053 0.029151684 -0.035043266 -0.080623575
0001b0 e7 a3 f4 3d b2 21 b7 bd a4 42 8b 3d 35 ad 29 3d
       0.119453244 -0.08941974 0.0679982 0.04142495
0001c0 3b bd b3 bc f3 18 a8 3d 9c 2c 5d bd 46 42 10 bd
       -0.021940818 0.08207884 -0.05399762 -0.035219453
0001d0 19 d4 9e 3d 75 b0 d4 bc 52 2a ae 3d 64 6a df 3d
       0.07755298 -0.025963048 0.08504166 0.10908964
0001e0 47 97 fb bc c7 a3 9a 3d 28 18 00 be 0d 6f 7d bd
       -0.030711783 0.07550769 -0.12509215 -0.061873484
0001f0 9f d8 20 bc e0 4a cc 3d 98 84 f3 3d cd f0 9e 3d
       -0.0098172715 0.09975219 0.118905246 0.07760773
000200 7e 7a 50 3d f4 ac b9 bd 14 2c 5e bb d9 47 44 bd
       0.050898068 -0.09066191 -0.0033900784 -0.04792008
000210 ba d4 07 be 8b f0 6f 3d e0 80 d9 3c 3c c9 f4 bb
       -0.13264742 0.05857901 0.02655071 -0.007470278
000220 21 21 42 bd 03 5a 80 bd ff fd d1 3d 1a 26 a1 3d
       -0.047394875 -0.062671684 0.10253524 0.078685954
000230 cb bf 85 bd 6d 4f f4 3d 2f 9e af bd af a3 33 3d
       -0.06530722 0.11929212 -0.08575093 0.043857273
000240 90 cb ca bd 4a 74 4c bd 5f 62 a6 bd 4e f3 47 bd
       -0.09902108 -0.04991559 -0.081242315 -0.048816018
000250 86 47 c1 3d 53 fa e2 3d 41 dd b4 3c 60 5e 91 bd
       0.0943747 0.11082902 0.022078158 -0.07098079
000260 6c 16 e5 36 9d ef 6e 3d 74 4d e2 bd 00 54 72 3c
       6.827342e-06 0.05833398 -0.11049929 0.014790535
000270 94 11 d7 3b 7d a0 86 3d 8d 5a f6 bd c0 62 8f 3c
       0.006563375 0.065735795 -0.1202899 0.017503142
000280 1d 7a e0 3d 6f 2e 98 3d 79 dd 95 3d dc b2 e0 bc
       0.10960791 0.074307315 0.07317633 -0.027429037
000290 af e9 e6 3d 1f b5 0e bc b7 64 30 bd be 58 8a bb
       0.1127504 -0.008710175 -0.0430648 -0.0042220047
0002a0 d8 50 3b bc 73 1e da bd 13 e1 35 bd e0 e1 c1 3d
       -0.011432849 -0.10650339 -0.0444041 0.0946691
0002b0 9a e0 96 bd 54 16 17 bd d8 25 c3 bd fc 1e fe 3d
       -0.07367058 -0.036886528 -0.095287025 0.124082536
0002c0 fb 51 86 bd d0 18 83 bd 40 46 0b 3d 0d 19 a2 bd
       -0.06558605 -0.06401217 0.034002542 -0.07914934
0002d0 98 cc cd 3c 1c 1e 12 bd 4e 48 d4 bc d0 17 4e 3d
       0.025121972 -0.035673246 -0.025913384 0.050315678
0002e0 d8 26 ee 3d df c3 0e 3d 7f 8d 63 bd 40 d9 9d bd
       0.116285026 0.034854766 -0.055554863 -0.07707453
0002f0 49 e9 b8 3d 5c 67 e6 3c 35 bc 08 3e 5f 1c a3 3d
       0.090288706 0.028125457 0.13353045 0.07964396
000300 c8 6a 68 3d c1 1b 2f bd 99 74 8c 3c ca e4 9a bd
       0.05674246 -0.042751078 0.017145442 -0.07563169
000310 e1 84 c1 bd 6d 66 c1 ba 6e 0d 3f bd 39 95 d8 3c
       -0.09449173 -0.0014755257 -0.046643667 0.026438342
000320 86 87 fa 3d 41 69 ca 3c 6e 89 20 bd 01 51 14 3d
       0.1223288 0.024708392 -0.039193563 0.036210064
000330 b7 60 0f 3d 0d e7 8c 38 86 fe a2 3d c2 72 c8 bd
       0.035004344 6.718757e-05 0.07958703 -0.09787513
000340 96 a9 91 3c 0f db a2 bc a2 a0 77 bc 0f 7d 5b 3d
       0.01778106 -0.019879846 -0.015113981 0.053586062
000350 f7 9d eb 3d 6f cf 73 bd c0 4f b8 3b c6 18 87 3d
       0.11504739 -0.059523996 0.0056247413 0.06596522
000360 04 f2 f7 3c 12 88 b1 bd c9 b0 1c bd 32 99 bc 3d
       0.03026677 -0.086685315 -0.038254533 0.09208907
000370 8f 24 5f 3c 4a 95 8c bc 6c a5 c7 bd fd ee 54 bd
       0.013619556 -0.01716103 -0.097483486 -0.05198573
000380 06 a2 01 be ee ed fb bd 66 4a cc 3d 21 eb 0b be
       -0.12659463 -0.12301241 0.09975128 -0.13663913
000390 86 66 c9 bd a0 4f dd 3c c9 36 02 3e eb 2b 96 bb
       -0.09834008 0.027015507 0.12716211 -0.004582872
0003a0 77 72 be bd 2c 26 b5 bd e5 28 d8 3c 29 eb b1 bc
       -0.09299176 -0.08845171 0.026386688 -0.021718578
0003b0 48 21 92 3d cf 1b 3e bd 3e 3b e6 3d 1d 94 9c 3d
       0.07135254 -0.04641324 0.11241768 0.07645438
0003c0 11 77 cb bd 9f 23 ad 3d 6e f0 76 3d 9a a0 d1 bd
       -0.099348195 0.0845406 0.060287885 -0.102357104
0003d0 de e5 7d 3d 67 b0 9e bd 6b 9a cf 3c 48 5b 40 3d
       0.061986797 -0.0774849 0.025342187 0.046962053
0003e0 66 b8 44 3d d1 df a1 bd de 80 f3 3d 7a 82 ca bb
       0.04802742 -0.07904018 0.11889814 -0.006180105
0003f0 9a 13 e7 3d c0 1c 8e bd a4 e6 a5 3c cd de ec bc
       0.112830356 -0.069390774 0.02025158 -0.028914833

lstm.bias_ih_l1 f4 [256]
000000 10 dc 4c 3d 70 8c da bd 2b c9 a5 3d 88 4f 0c 3e
       0.050014555 -0.106713176 0.0809501 0.13702214
000010 04 e8 df bc 60 9a 76 3b 57 59 2b 3d 83 a4 cb bd
       -0.027332313 0.0037628636 0.041833248 -0.099434875
000020 95 f3 c5 3d ad af 07 bd 8f e9 d6 3d 7f 08 8e 3d
       0.096656 -0.03312652 0.104937665 0.06935214
000030 2b 19 5d bd a7 7f 10 3d 2b ac 45 bd 18 54 0b 3e
       -0.05397908 0.03527799 -0.048259895 0.13606298
000040 2d 9b 82 bd 2c cd 05 3b e5 2e de bd 2d fc 84 bd
       -0.06377254 0.0020416481 -0.10848788 -0.06493411
000050 8a 7e 02 bd 42 e4 68 3a e1 4c aa bb 98 2a 7d 3d
       -0.03185896 0.0008884111 -0.005197153 0.0618082
000060 89 35 2e bd 0f 89 18 3e eb ab 5d bd 8b 38 29 3e
       -0.042531524 0.14896034 -0.054119032 0.16525476
000070 93 ca a5 3d a0 8c f6 3d cc 06 dd 3d 89 92 ac 3d
       0.080952786 0.12038541 0.10792312 0.08426387
000080 ab 83 c6 bb 6a 1d ae ba 63 1b e0 bd db af 08 3e
       -0.0060581765 -0.0013283913 -0.109427236 0.13348334
000090 9f d1 2c bd b9 20 84 bd d0 8e 9e bd 35 eb 7a 3c
       -0.042192098 -0.06451554 -0.07742083 0.015314867
0000a0 fd aa 2b 3d e7 58 ca bb b2 ea a6 bd 58 aa b9 bd
       0.041911114 -0.0061751488 -0.08150233 -0.090656936
0000b0 d6 38 a9 3d 17 e4 c7 3d c7 14 5a bd ae ef 5d 3d
       0.08262794 0.097603016 -0.05324247 0.054183654
0000c0 0e 21 12 bd 46 3b 23 bd 5d 7e 4e 3a e9 0e f9 3c
       -0.035676055 -0.03985145 0.0007877106 0.030402618
0000d0 f2 43 ae bd ca 5c 27 bd 0a 39 97 bc 4c f6 0e 3d
       -0.08509053 -0.040859975 -0.018459816 0.034902856
0000e0 f1 84 9f bd 71 ce 33 3d 73 e0 65 3d 0e d3 91 3b
       -0.077890284 0.04389805 0.056122255 0.0044502085
0000f0 2d 0c c5 3d 0e 4b 8c bd 88 bc c8 3d 3d 35 78 bc
       0.09621463 -0.06850253 0.098015845 -0.015149412
000100 67 a6 32 bc 03 f6 b2 39 ef a6 48 bc f2 d9 30 3d
       -0.010903931 0.000341341 -0.012246831 0.0431766
000110 18 b3 bf 3d 75 1b 6c 3d a4 6d 84 bd aa 22 fe bc
       0.09360331 0.057643373 -0.06466225 -0.031022388
000120 ae 8e b7 bd 82 ee d8 bd 14 c0 cc 3d fc ef 8d bd
       -0.08962761 -0.10592367 0.099975735 -0.06930539
000130 16 1c 04 3d 54 85 81 bd 9b 29 b7 3d 15 d4 61 bd
       0.032253347 -0.063242584 0.089434825 -0.055133898
000140 df b8 b6 3d 69 f1 bf 3c 67 a8 aa bc 49 f4 d3 bd
       0.0892198 0.023430543 -0.020832254 -0.10349328
000150 a5 f7 42 3d cb 65 e7 3d b1 0b ac bd 1e 3e 1c 3c
       0.047599453 0.11298712 -0.084006675 0.009536294
000160 a1 4e ee 3d d3 6b 0d 3e 06 a5 a0 bd d3 64 b1 bd
       0.11636091 0.13810663 -0.07843976 -0.08661809
000170 40 c5 85 3d b6 07 8d bd 09 d7 b9 bd e2 84 c8 3d
       0.06531763 -0.06886236 -0.09074218 0.097909704
000180 4b 50 d8 bd 2d 1e a7 bd d8 6f e8 bd b2 50 83 bd
       -0.1056219 -0.081600524 -0.113494575 -0.06411876
000190 59 4a 63 bc c3 ae e7 3c d7 90 ca bd 6a 9c bd bd
       -0.013872706 0.028281575 -0.09890907 -0.09258349
0001a0 32 25 9f 3d d1 18 db bd 74 db 9c 3c 0a 8f 99 3d
       0.07770766 -0.10698093 0.019147612 0.07497986
0001b0 58 a5 60 bb 24 40 ca bd 23 01 57 3d 26 13 83 bd
       -0.003427824 -0.09875515 0.05249132 -0.06400137
0001c0 0c ce 13 bc 78 c7 ee bd 29 a2 04 3d ac 5e c4 3d
       -0.009021293 -0.116591394 0.03238121 0.0958837
0001d0 58 f0 d7 bd 31 94 41 3d 95 64 b3 3d c1 b1 fc 3c
       -0.10543889 0.047260467 0.08759419 0.030846478
0001e0 05 ba 09 3d d8 5c 49 bd fc c8 26 3d f0 5e d1 3d
       0.033624668 -0.04916081 0.040719017 0.10223186
0001f0 8d 5d 45 3d a1 d5 df bd 17 23 32 bd 32 a5 de 3d
       0.04818492 -0.10929418 -0.043490496 0.10871352
000200 e2 ab 1c bd f6 af 3a bc 52 47 c3 3b 02 e8 9f 3c
       -0.038249858 -0.011394491 0.00595943 0.01951981
000210 26 24 76 bd 9c 9c 1e bd 24 61 a9 bd 0c f1 df bd
       -0.060093068 -0.038723573 -0.08270481 -0.10934648
000220 a3 06 b6 3d ef a3 51 bd f4 60 c1 bd 35 87 36 bd
       0.088879846 -0.05118173 -0.094423205 -0.044562537
000230 5a ae 1f bd 50 9a f5 3d 21 74 77 bc af 3e fe bd
       -0.038984634 0.119923234 -0.015103371 -0.124143
000240 45 c1 da bb 37 a4 69 bd 17 f2 d9 3d 3e 36 bd 3c
       -0.0066758716 -0.057041373 0.10641878 0.023097154
000250 22 97 7d bc 62 e7 e7 3d d1 f2 c0 bd 5c 5a 62 bd
       -0.015477927 0.1132343 -0.094213136 -0.055261955
000260 f6 e6 35 3d be 3a b0 3d 71 4a 03 bd 48 7e 65 bc
       0.044409715 0.08604954 -0.032053415 -0.014007159
000270 50 8e e6 3d 12 25 f2 3c 34 6a 1d bc c4 a5 b7 3d
       0.11257613 0.029558692 -0.00960784 0.08967164
000280 a9 e1 fc bd 13 e8 03 3d b1 a7 91 bd 86 ca 80 bd
       -0.12347729 0.032203745 -0.07112063 -0.06288628
000290 32 eb 3f bd 8a 70 bb 3d 7f 62 b4 3c ea 12 36 3d
       -0.04685516 0.091523245 0.022019623 0.04445163
0002a0 65 21 ac 3d 92 02 85 bb 90 d3 0d 3d cb ef 87 3d
       0.08404807 -0.0040591443 0.03462559 0.06637534
0002b0 de 17 db bd 40 9b 4a bd d7 7b a7 bd 0f 52 cb 3d
       -0.10697912 -0.049464464 -0.081779175 0.09927761
0002c0 6f ae ca bb 32 0e 41 bd 28 21 7d 3d c1 07 ce bd
       -0.006185345 -0.04713268 0.0617992 -0.10060073
0002d0 a8 94 c8 bd e8 44 c2 bc 9d c8 9b 3c 66 c2 9d bd
       -0.09793979 -0.023714498 0.019016558 -0.07703094
0002e0 ed 7e b2 bd 46 a7 59 3c 18 02 b0 bc 3f d8 81 bd
       -0.087156154 0.01328451 -0.021485373 -0.06340074
0002f0 f4 82 a9 3d 62 85 99 bc 4b 98 a0 bd 38 43 2a bd
       0.082769305 -0.01874036 -0.078415476 -0.04156801
000300 b7 1b 96 3d c3 a4 98 bd 9f 80 10 bd 6d 27 3a 3c
       0.07329505 -0.07453301 -0.035278913 0.011361939
000310 d9 6c 33 3e c7 70 91 bd 07 3f 7a bd 67 4a f7 bc
       0.17521991 -0.07101589 -0.061095264 -0.030186845
000320 25 81 cb 3c 26 9e c5 bd 41 fd 83 bb 4f db d2 bd
       0.024841854 -0.09649305 -0.004027993 -0.10295736
000330 2e a5 5d bd f4 a9 1f 3d 34 a3 c0 bd 18 a1 5c bc
       -0.054112606 0.03898044 -0.094061285 -0.013466142
000340 b1 86 13 bd d8 11 18 bd 19 01 50 bd ad 00 9e bd
       -0.036017124 -0.037126392 -0.050782297 -0.07714973
000350 c8 ef 90 bb 24 4a 95 3d 04 c6 00 3d a3 f9 99 3d
       -0.0044231154 0.07289532 0.031438842 0.075183176
000360 be 74 c5 bd 4d 8f 06 3e 9a ef 9c 3d 81 58 80 3d
       -0.096414074 0.13140602 0.07662888 0.06266881
000370 96 f1 bb 3d de 71 eb 3d 1b 6f 21 bd 0b fd b7 3d
       0.09176938 0.11496328 -0.0394126 0.08983811
000380 19 4d ec 3b d7 c5 ff bc d0 f4 d3 bd fc 9d a6 ba
       0.007211339 -0.031222267 -0.10349429 -0.0012711878
000390 0b c8 f3 3c e5 8d 37 3d 94 00 cd bd 82 17 22 bd
       0.029758474 0.044813056 -0.10009876 -0.0395732
0003a0 c1 b6 2d 3d c3 04 43 3d 41 ef 21 3d 3d 9d 92 3d
       0.042410616 0.047611963 0.03953481 0.07158897
0003b0 8f d7 71 bd c3 2b 27 bd 3f c3 38 3e 92 d3 db 3d
       -0.059043463 -0.04081322 0.1804323 0.10733713
0003c0 cc e4 4f bd 00 8e bb bc 97 bb ac 3d 72 b7 73 3d
       -0.050755307 -0.02289486 0.084342174 0.05950112
0003d0 08 dd 89 bc 26 5a e7 bd 12 89 cd bd 5d 70 e0 bd
       -0.016829029 -0.11296491 -0.1003591 -0.109589316
0003e0 2c 9b 0a be 27 a8 1b 3d 43 b7 6f 3d 7d 0c eb bc
       -0.13535756 0.03800216 0.05852438 -0.028692478
0003f0 e5 0b ed 3d 9a c2 89 3d f1 c7 a7 bd f3 6c 16 3d
       0.11574534 0.067265704 -0.08192433 0.036724996
