lstm_model.pth (torch, 204393 bytes, 9 tensors)

lstm.weight_ih_l0 f4 [256, 1]
0.05810309 0.0016675099 0.052184 0.021376062 -0.04155919 -0.06580004 -0.07242139 -0.019354844
-0.014100275 0.1023528 -0.04584533 0.106900826 0.006254184 0.09785785 -0.128192 0.098332144
0.10139124 0.06708247 -0.05915184 0.013938278 -0.040921867 -0.117018625 -0.039727684 -0.08146743
0.09386782 -0.06196944 0.044683658 0.120405085 0.013632853 0.09636597 0.10132317 -0.041698057
-0.051406387 0.028688172 0.15462829 0.067680635 0.08492511 -0.021049596 -0.11651799 0.05412144
-0.020848852 0.048092786 0.038520116 -0.07861748 0.030192956 0.06310853 0.01896046 0.088149615
0.062272765 0.073499545 -0.11682253 -0.01802729 -0.13380778 -0.04412714 0.081433974 0.04493639
-0.10441686 -0.014622097 -0.010674479 -0.10805495 -0.120678075 -0.0049942704 0.11744617 -0.013945849
-0.056340612 0.14740503 0.09364284 0.055380348 0.07331083 0.062392406 -0.12051246 0.015069797
-0.13479306 -0.11499336 0.038362864 0.10034761 0.1282498 0.043322325 -0.19228977 -0.026768342
-0.0016104238 -0.026525984 0.0020316385 -0.10019147 -0.009377126 -0.002360216 0.018701406 -0.06851008
-0.055802982 -0.032851186 -0.03888641 -0.023538576 -0.1874353 -0.12786908 0.1586191 0.056944136
0.0216726 0.00048579872 0.06836456 -0.010018815 0.017427573 -0.15229121 0.08222061 -0.06056112
-0.12309069 0.060513258 0.06071765 -0.10445219 -0.040832426 -0.0544533 0.01116031 0.09688956
0.09502496 0.023630554 -0.13402104 -0.05308644 0.030527461 0.04302664 -0.04454614 0.10884978
0.11471951 -0.115629174 0.07365705 -0.009947217 0.00013704013 -0.008137624 0.11471493 0.14492396
0.024507428 -0.15101473 -0.10160504 -0.08120932 -0.14399935 -0.13936865 -0.084111705 -0.106052056
0.15226023 0.1761436 -0.09252187 0.020712074 -0.11570122 -0.0067714346 0.14729655 -0.011080465
-0.104431614 -0.122946866 -0.19057985 0.107305974 0.09367694 0.0901699 0.153484 -0.0759312
0.019874658 0.03483189 -0.16698392 0.15316498 -0.152405 -0.16523118 0.16943218 -0.049512077
-0.11132882 -0.009708082 0.12332297 -0.001975591 0.063732974 -0.13405392 0.09713606 -0.031420406
0.0713574 -0.047165856 -0.11787561 0.17326386 -0.01947563 -0.10826376 0.1846346 0.12528925
-0.044937458 -0.13184191 0.0900192 0.1436234 0.11513198 0.103300706 0.18845128 -0.07367781
-0.10433119 -0.07072684 -0.0741405 0.06537715 0.09560796 0.011998293 -0.08673418 -0.11583154
0.0292208 -0.07094356 -0.028682863 -0.039205898 -0.07491991 0.061226718 0.07830557 0.00014101362
0.05151588 0.06633599 -0.008834787 0.025172353 -0.046884574 0.055939034 -0.030969014 -0.010477079
0.07226315 0.083480075 -0.017094174 -0.058045503 0.098002605 0.03268095 0.111091144 4.2581178e-05
-0.044633072 0.12340029 0.17060585 -0.06864077 -0.13995245 0.019856421 0.15388489 0.090292536
-0.039196353 0.065672 0.040440828 -0.03602998 0.013037621 0.05197653 0.10476099 -0.016348412
-0.077762485 -0.05320539 -0.07075728 0.053456604 0.18032527 -0.006610469 0.0025135803 0.044427037
-0.013259511 0.095159516 0.03770815 0.14213271 -0.13526952 0.13256972 0.15388241 0.07997262
-0.0749467 0.06581679 0.03309696 -0.08851458 -0.049839232 0.12964363 -0.084591374 -0.06522744
00000000: 81fd 6d3d 5990 da3a e4be 553d da1c af3c
00000010: f839 2abd 2cc2 86bd aa51 94bd 0d8e 9ebc
00000020: d704 67bc 589e d13d 50c8 3bbd d2ee da3d
00000030: e6ef cc3b b269 c83d c344 03be 5d62 c93d
00000040: 36a6 cf3d 8962 893d 3349 72bd 605d 643c
00000050: b09d 27bd 76a7 efbd 7fb9 22bd 65d8 a6bd
00000060: c63d c03d abd3 7dbd 3606 373d f196 f63d
00000070: 545c 5f3c 865b c53d 8682 cf3d 95cb 2abd
00000080: 818f 52bd 7503 eb3c e156 1e3e 259c 8a3d
00000090: 37ed ad3d 3470 acbc fca0 eebd 71ae 5d3d
000000a0: 36cb aabc f1fc 443d 45c7 1d3d 3402 a1bd
000000b0: 3857 f73c 0c3f 813d f752 9b3c c987 b43d
000000c0: ba11 7f3d ee86 963d a740 efbd f8ad 93bc
000000d0: e804 09be a9be 34bd dbc6 a63d 380f 383d
000000e0: 82d8 d5bd 8591 6fbc 03e4 2ebc ea4b ddbd
000000f0: 1126 f7bd faa6 a3bb 9e87 f03d 217d 64bc
00000100: 6ac5 66bd 58f1 163e d1c7 bf3d 81d6 623d
00000110: fd23 963d 2e8f 7f3d 3dcf f6bd 4fe7 763c
00000120: 3107 0abe a481 ebbd 6122 1d3d 0c83 cd3d
00000130: ea53 033e c072 313d 9ce7 44be 4849 dbbc
00000140: db14 d3ba 054d d9bc 3d25 053b 2f31 cdbd
00000150: 84a2 19bc dbad 1abb b133 993c 034f 8cbd
00000160: ab91 64bd f78e 06bd 5b47 1fbd f9d3 c0bc
00000170: 0aef 3fbe 1df0 02be 0c6d 223e 413e 693d
00000180: bd8a b13c cdb2 fe39 b802 8c3d f525 24bc
00000190: 45c4 8e3c 3af2 1bbe 4763 a83d f00e 78bd
000001a0: f916 fcbd c0dc 773d 12b3 783d 08eb d5bd
000001b0: e73f 27bd 6c0a 5fbd bcd9 363c 096e c63d
000001c0: 729c c23d dd94 c13c d03c 09be 2b71 59bd
000001d0: ba14 fa3c b43c 303d 0376 36bd a2ec de3d
000001e0: 10f2 ea3d fdce ecbd 82d9 963d a7f9 22bc
000001f0: 6eb2 0f39 ab53 05bc a9ef ea3d f266 143e
00000200: cdc3 c83c 9ba3 1abe 4e16 d0bd 1251 a6bd
00000210: 9174 13be a8b6 0ebe c242 acbd d231 d9bd
00000220: 1bea 1b3e fd5e 343e 1b7c bdbd 5eac a93c
00000230: c3f4 ecbd e9e2 ddbb e8d4 163e d78a 35bc
00000240: 3ee0 d5bd 91cb fbbd 5d27 43be 3cc3 db3d
00000250: b2d9 bf3d ffaa b83d e92a 1d3e d181 9bbd
00000260: 2ed0 a23c e2ab 0e3d d5fd 2abe 48d7 1c3e
00000270: 0e10 1cbe 5d32 29be a17f 2d3e 2dcd 4abd
00000280: 5d00 e4bd a60e 1fbc c190 fc3d eb78 01bb
00000290: 6f86 823d 6e45 09be 45ef c63d afb2 00bd
000002a0: d423 923d fc30 41bd c568 f1bd 156c 313e
000002b0: 5b8b 9fbc 64b9 ddbd da10 3d3e d34b 003e
000002c0: 5710 38bd 9101 07be fd5b b83d 0312 133e
000002d0: 51ca eb3d 528f d33d 5ff9 403e 64e4 96bd
000002e0: 97ab d5bd 3cd9 90bd f9d6 97bd 75e4 853d
000002f0: 1bce c33d 7d94 443c b1a1 b1bd 1639 edbd
00000300: 7660 ef3c db4a 91bd 53f8 eabc 5d96 20bd
00000310: 9c6f 99bd dec8 7a3d ac5e a03d 0edd 1339
00000320: 5102 533d 2adb 873d c8bf 10bc 4036 ce3c
00000330: 0a0a 40bd 5420 653d bbb2 fdbc 0ea8 2bbc
00000340: b4fe 933d 9af7 aa3d 1509 8cbc 1fc1 6dbd
00000350: 97b5 c83d 76dc 053d c183 e33d 3199 3238
00000360: 2bd1 36bd 4bb9 fc3d 4db3 2e3e 8893 8cbd
00000370: b24f 0fbe efa9 a23c 0094 1d3e 4beb b83d
00000380: 5b8c 20bd 0b7f 863d 48a5 253d 2c94 13bd
00000390: bf9b 553c 58e5 543d ee8c d63d 1bed 85bc
000003a0: f041 9fbd e5ed 59bd 31e9 90bd 50f5 5a3d
000003b0: 30a7 383e a29c d8bb e1ba 243b 20f9 353d
000003c0: 6c3e 59bc fee2 c23d dc73 1a3d 3d8b 113e
000003d0: 1884 0abe 5bc0 073e 5a93 1d3e afc8 a33d
000003e0: a87d 99bd f4ca 863d ae90 073d 2247 b5bd
000003f0: 3924 4cbd 4dc1 043e 3e3e adbd f795 85bd

lstm.weight_hh_l0 f4 [256, 64]
-0.072091796 -0.12478032 0.03594132 -0.11509463 -0.10445937 -0.1820998 0.018439941 0.012603694
-0.016908249 0.0024045904 -0.09431144 -0.11988425 0.00015992908 0.099057764 -0.060788628 -0.060883034
-0.059839264 -0.14863183 -0.025423888 0.10935492 -0.07966599 -0.026877139 -0.051080298 0.08151176
0.025743037 -0.012434108 -0.008402389 0.13011065 -0.17655829 -0.1713704 0.01803079 0.08270964
-0.0802573 -0.12415566 0.051692467 0.021207297 0.158597 0.041731782 -0.06467772 0.099058084
0.0039576967 -0.047949724 -0.032989815 -0.059023794 0.07950119 -0.13680492 0.16036615 -0.09907404
-0.10204988 0.06985646 0.060601067 0.0046618804 0.14590459 -0.054280818 -0.005088227 0.08612944
0.042669818 0.04224756 -0.08834773 -0.0037436408 0.1467889 -0.076575935 0.124587886 -0.040234864
0.07009469 -0.1347666 -0.058377225 0.10996526 0.08126642 0.04767239 -0.07397298 -0.08547644
-0.08909665 -0.05722384 -0.01493451 0.032225423 0.1260471 0.036335524 -0.081679426 0.045077525
0.008837968 -0.040596437 0.0075312387 -0.0681666 0.1171692 0.04016011 0.10599425 0.11165225
-0.067101106 0.004968636 -0.13900845 0.11850652 0.08811298 0.0098455185 0.13652238 0.04670844
-0.14075981 0.0116456505 -0.06640556 0.03390688 -0.08621529 0.10220205 0.12687102 -0.034800977
-0.16013494 -0.10884077 0.031234758 0.114859596 0.13408458 0.023234993 0.04062545 0.043714345
0.054859553 -0.11952165 -0.06373329 -0.06100419 -0.09615773 0.105075955 0.04674879 0.068371095
-0.016264897 0.061755512 -0.01727684 -0.01683573 0.06873078 0.022177044 -0.10837135 -0.11183473
0.09112162 0.012227164 -0.034837797 0.038001988 -0.026638467 -0.048218578 -0.043575842 0.071490794
0.063624054 0.0770304 0.05957338 0.12192223 -0.023066558 -0.085167415 0.02488326 0.053343523
0.09491109 -0.09935735 -0.14596756 -0.04116459 -0.022746706 0.027544051 0.075433806 0.13680258
0.049510226 -0.097459115 -0.065068565 0.11448705 0.10552531 0.061644692 -0.007010726 0.09460933
0.043692574 -0.13027391 0.030882198 -0.06676965 0.018305019 -0.00733979 -0.046339203 -0.042319372
-0.12238267 0.012843215 0.018676125 -0.06812989 0.048797883 -0.0072037415 -0.12789437 0.04612475
-0.028128374 -0.08490817 -0.13003354 0.14496242 -0.09407837 -0.016755326 0.11232474 0.0130117275
-0.13162637 -0.057906814 -0.07279858 0.02346218 -0.08889925 0.0698916 -0.051689293 -0.042728934
-0.086245455 0.14215091 0.023515578 0.12669614 0.089426406 0.10949104 -0.022726018 -0.018962495
0.07351515 0.00048882 -0.10815193 0.08777317 0.117832534 0.0238406 -0.14377172 0.0053967047
0.069706686 0.04361535 -0.07312845 0.009673396 -0.02974033 0.03504621 0.025400981 -0.068868555
0.116596475 0.11091368 -0.024141096 -0.14881055 0.037299525 0.0031158198 0.012044351 -0.050532088
-0.06491721 0.057389412 -0.10528257 -0.10828014 0.03218385 0.038029112 -0.10765664 0.078360245
-0.1299787 0.07938757 0.11316466 -0.12103532 0.034644343 -0.028604612 -0.026494736 -0.026405865
-0.12545006 0.11542256 -0.0043991194 -0.0016447859 -0.0027705005 -0.055112123 0.10609192 -0.11152042
0.039855875 -0.119531155 -0.0063602095 -0.083191305 -0.1279423 -0.034230053 -0.113535464 -0.023055572
00000000: dda4 93bd d38c ffbd 3537 133d bcb6 ebbd
00000010: cbee d5bd 5f78 3abe 5c0f 973c b97f 4e3c
00000020: 2b83 8abc 5596 1d3b 5b26 c1bd e085 f5bd
00000030: a3b2 2739 ccde ca3d 7ffd 78bd 7d60 79bd
00000040: 041a 75bd f132 18be c245 d0bc 79f5 df3d
00000050: ec27 a3bd 722d dcbc 9339 51bd a3ef a63d
00000060: 10e3 d23c 6eb8 4bbc 2caa 09bc ba3b 053e
00000070: b2cb 34be b97b 2fbe 4fb5 933c ac63 a93d
00000080: f05d a4bd 5345 febd 7bbb 533d edba ad3c
00000090: 4167 223e f2ee 2a3d c175 84bd f7de ca3d
000000a0: 91af 813b ee66 44bd 5420 07bd efc2 71bd
000000b0: 85d1 a23d 9716 0cbe 0637 243e 55e7 cabd
000000c0: 87ff d0bd e710 8f3d d338 783d b0c2 983b
000000d0: 0368 153e 9055 5ebd 24bb a6bb a264 b03d
000000e0: 8cc6 2e3d c70b 2d3d a8ef b4bd df57 75bb
000000f0: d44f 163e d8d3 9cbd ef27 ff3d 50cd 24bd
00000100: ce8d 8f3d 4100 0abe f51c 6fbd 7735 e13d
00000110: 026f a63d 2044 433d 257f 97bd 460e afbd
00000120: 4e78 b6bd 8c63 6abd e0af 74bc cefe 033d
00000130: 7e12 013e 8fd4 143d 8b47 a7bd 36a3 383d
00000140: 20cd 103c 7348 26bd 9cc8 f63b ee9a 8bbd
00000150: 68f6 ef3d ed7e 243d 8313 d93d efa9 e43d
00000160: 4e6c 89bd f1cf a23b 3b58 0ebe 8cb3 f23d
00000170: 9474 b43d 194f 213c 86cc 0b3e 5951 3f3d
00000180: 5723 10be 66cd 3e3c a3ff 87bd f1e1 0a3d
00000190: a491 b0bd 4f4f d13d 7aea 013e 788b 0ebd
000001a0: 6afa 23be e9e7 debd 09e0 ff3c 823b eb3d
000001b0: 784d 093e 5057 be3c df66 263d d00d 333d
000001c0: 69b4 603d c4c7 f4bd 9986 82bd 88df 79bd
000001d0: 58ee c4bd 1032 d73d a97b 3f3d 2506 8c3d
000001e0: f63d 85bc 59f3 7c3d 2988 8dbc 16eb 89bc
000001f0: b9c2 8c3d a2ac b53c ccf1 ddbd 9b09 e5bd
00000200: f99d ba3d 7154 483c 14b2 0ebd f9a7 1b3d
00000210: ea38 dabc d880 45bd 957c 32bd c469 923d
00000220: 544d 823d 1dc2 9d3d 3703 743d 5db2 f93d
00000230: 14f6 bcbc 416c aebd fad7 cb3c bd7e 5a3d
00000240: bf60 c23d de7b cbbd 8578 15be 339c 28bd
00000250: 4d57 babc 10a4 e13c 0a7d 9a3d fa15 0c3e
00000260: 3ccb 4a3d a598 c7bd ab42 85bd 3078 ea3d
00000270: a71d d83d 257f 7c3d 3bba e5bb 89c2 c13d
00000280: fcf6 323d 8666 05be aafc fc3c 87be 88bd
00000290: 68f4 953c 9f82 f0bb 2dce 3dbd 1457 2dbd
000002a0: c4a3 fabd 596c 523c acfe 983c af87 8bbd
000002b0: 4ae0 473d 5d0d ecbb bef6 02be 4eed 3c3d
000002c0: 7a6d e6bc 56e4 adbd 8327 05be 0771 143e
000002d0: 29ac c0bd 7742 89bc 830a e63d 242f 553c
000002e0: 10c9 06be b22f 6dbd 6c17 95bd c233 c03c
000002f0: cf10 b6bd 5423 8f3d 27b8 53bd 8904 2fbd
00000300: 75a1 b0bd 0290 113e bea3 c03c a2bc 013e
00000310: 3125 b73d d73c e03d ea2b babc 3c57 9bbc
00000320: 1c8f 963d 2824 003a c27e ddbd 6bc2 b33d
00000330: 2f52 f13d 5d4d c33c e538 13be d7d6 b03b
00000340: 61c2 8e3d 02a6 323d 5ec4 95bd 2a7d 1e3c
00000350: fea1 f3bc 9d8c 0f3d b815 d03c f50a 8dbd
00000360: 22ca ee3d b626 e33d 8cc3 c5bc cb61 18be
00000370: 63c7 183d c832 4c3b ab55 453c bcfa 4ebd
00000380: 50f3 84bd 2911 6b3d 639e d7bd fac1 ddbd
00000390: 36d3 033d 6ac4 1b3d 167b dcbd 567b a03d
000003a0: 2319 05be f395 a23d e0c2 e73d 5ee1 f7bd
000003b0: 3ae7 0d3d 3854 eabc 7d0b d9bc 1d51 d8bc
000003c0: fb75 00be aa62 ec3d 7d26 90bb db95 d7ba
000003d0: 4991 35bb 40bd 61bd b846 d93d d164 e4bd
000003e0: ea3f 233d c0cc f4bd 4e69 d0bb 3460 aabd
000003f0: 4e03 03be d034 0cbd 4885 e8bd 0adf bcbc

lstm.bias_ih_l0 f4 [256]
-0.124962874 0.1436835 -0.013054325 0.13117217 -0.017934043 0.031479083 0.09342489 0.045041576
-0.0415333 -0.032522507 0.011232831 0.11313578 0.093445934 -0.10332919 -0.0736117 0.022509204
0.09185694 -0.084676705 -0.083121024 -0.1273048 0.08666868 0.016400713 -0.086281106 0.080886334
-0.1251276 0.030679563 0.11982271 -0.0085045835 -0.05625339 -0.04641453 0.052113388 -0.06050092
0.046451733 0.025789829 -0.03046406 -0.15007946 0.07978234 -0.10362264 -0.0045204205 0.106140114
-0.062411115 0.07950478 -0.03510515 0.030149432 -0.01643363 -0.07959858 0.057440117 0.04007143
-0.050251067 -0.075677924 -0.116830476 0.14166872 -0.05181483 -0.07507829 -0.06920425 -0.021729201
0.027013741 0.075116895 -0.011066594 0.056028478 0.0982252 -0.12267332 0.14116085 -0.026623087
0.09168685 0.13120052 -0.019053867 -0.056505013 -0.09575634 0.113802984 0.08804851 0.10900651
0.08965204 0.054415673 -0.026841147 -0.11069601 -0.11586279 0.03963666 0.091906756 -0.015524152
-0.06258805 0.1103691 -0.06359568 0.007001148 0.06145339 0.10775068 0.014712234 0.09995303
-0.12783997 -0.050386656 -0.020966876 0.0075760107 0.106502004 -0.08677162 0.044207465 0.118480176
0.011423632 -0.0046308343 0.044065103 0.07512046 0.015158446 0.052732132 0.08393863 -0.0527309
-0.04814466 -0.044944294 -0.0594322 0.07395489 -0.032058664 0.08078478 0.107645616 0.07488187
0.017601809 0.103777416 -0.069146775 0.101540975 -0.015439421 -0.04987712 0.103308864 0.10501744
-0.097620964 -0.09110725 -0.06808949 0.09304605 -0.04870469 -0.09572043 0.12668668 0.1264563
-0.10882328 0.04633919 0.122690625 -0.034529895 0.072603025 -0.02629673 -0.10670682 -0.036092002
-0.0026878323 -0.11659819 -0.093160376 0.0024914173 0.11120552 0.031068634 -0.10323333 -0.04433195
0.044514995 -0.021425107 -0.07976069 -0.05172469 0.04927413 0.09954167 -0.09809766 -0.0019590955
-0.11411732 0.028613588 0.047945928 -0.07184822 0.09201373 0.012894917 0.1145702 0.110992014
0.015610211 -0.038051177 0.010621825 -0.05977862 0.12418474 0.07727122 0.049683876 -0.007408008
-0.095449574 -0.11973917 -0.07572898 -0.10462908 0.05482815 0.09034706 0.015939403 0.024162373
-0.10688737 -0.0651743 -0.07616348 0.088572 -0.07289355 -0.0020212142 0.07610461 0.012722794
-0.0814539 -0.03736321 0.0068394593 -0.1338614 0.024839833 0.023131471 0.019863177 -0.11836845
0.10706591 0.1270497 0.026389675 0.04755906 0.056596216 0.120344125 0.121202536 0.06429008
0.11530646 0.077312395 -0.058883842 0.025568457 -0.027190736 0.05814028 -0.085634515 -0.049697552
0.09488585 -0.020132065 0.091000654 -0.058525592 0.0058595682 0.03194889 0.05788662 -0.10117301
-0.01727399 -0.08646738 0.12691197 -0.01740256 -0.056858182 0.10558876 -0.008660857 -0.083907805
-0.05342656 -0.07865397 -0.04632026 -0.10578941 0.1106112 0.00036763845 -0.043857858 -0.079931125
-0.046905093 0.0032936262 -0.013847001 -0.017056817 0.0536015 0.070465654 0.124605075 0.033469327
-0.13192134 0.12530272 -0.09601021 0.115985855 0.056935318 0.006606911 0.043289416 0.016514616
0.053586435 -0.082043044 0.042464137 -0.017920297 -0.050703466 0.07853958 0.018958088 -0.0040618577
00000000: 89ec ffbd c421 133e cfe1 55bc ff51 063e
00000010: 6aea 92bc 36f0 003d 8c55 bf3d 847d 383d
00000020: d21e 2abd 5236 05bd e809 383c bbb3 e73d
00000030: 9560 bf3d 419e d3bd bbc1 96bd 3965 b83c
00000040: 7e1f bc3d fb6a adbd 5b3b aabd 315c 02be
00000050: 597f b13d ca5a 863c 26b4 b0bd bca7 a53d
00000060: 7321 00be b553 fb3c 9c65 f53d cf56 0bbc
00000070: f469 66bd 2a1d 3ebd d974 553d d0cf 77bd
00000080: 2c44 3e3d 3145 d33c c48f f9bc 6eae 19be
00000090: ec64 a33d 1b38 d4bd 0920 94bb fd5f d93d
000000a0: cca2 7fbd 67d3 a23d 6bca 0fbd f1fb f63c
000000b0: d29f 86bc 9504 a3bd 5446 6b3d f121 243d
000000c0: 10d4 4dbd 07fd 9abd d144 efbd 9b11 113e
000000d0: ca3b 54bd a6c2 99bd f5ba 8dbd 7001 b2bc
000000e0: ec4b dd3c e3d6 993d a950 35bc 1e7e 653d
000000f0: 4b2a c93d 263c fbbd 788c 103e a918 dabc
00000100: 51c6 bb3d 6e59 063e db16 9cbc cd71 67bd
00000110: e61b c4bd 8a11 e93d c752 b43d ce3e df3d
00000120: 7d9b b73d f8e2 5e3d f7e1 dbbc 97b4 e2bd
00000130: 7849 edbd 0d5a 223d 9c39 bc3d 0359 7ebc
00000140: 2a2e 80bd 3209 e23d 743e 82bd e369 e53b
00000150: 8db6 7b3d 63ac dc3d 950b 713c 2db4 cc3d
00000160: 7be8 02be 3d62 4ebd bac2 abbc 2f40 f83b
00000170: b91d da3d 52b5 b1bd e312 353d bca5 f23d
00000180: 2f2a 3b3c 41be 97bb 9c7d 343d c1d8 993d
00000190: 215b 783c a6fd 573d 04e8 ab3d 5bfc 57bd
000001a0: 5633 45bd 8217 38bd 2e6f 73bd a975 973d
000001b0: f24f 03bd 7e72 a53d 4e75 dc3d aa5b 993d
000001c0: ab31 903c 4189 d43d d39c 8dbd b7f4 cf3d
000001d0: a0f5 7cbc f34b 4cbd 9993 d33d 6213 d73d
000001e0: 80ed c7bd 7096 babd 8172 8bbd ed8e be3d
000001f0: 927e 47bd 1309 c4bd 27ba 013e c37d 013e
00000200: bdde debd 2ace 3d3d 3945 fb3d 386f 0dbd
00000210: e5b0 943d 3d6c d7bc 1b89 dabd 35d5 13bd
00000220: 5826 30bb 08cb eebd deca bebd 0c47 233b
00000230: b8bf e33d a683 fe3c ff6b d3bd 6b95 35bd
00000240: 5b55 363d b583 afbc 9359 a3bd 45dd 53bd
00000250: acd3 493d 81dc cb3d 6de7 c8bd 2b64 00bb
00000260: 57b6 e9bd 0b67 ea3c f362 443d 2925 93bd
00000270: b271 bc3d 3445 533c c8a3 ea3d c84f e33d
00000280: f8c1 7f3c 8ddb 1bbd 2a07 2e3c 6dda 74bd
00000290: 9254 fe3d 6040 9e3d 5281 4b3d e0be f2bb
000002a0: 117b c3bd cf39 f5bd cc17 9bbd c547 d6bd
000002b0: 7b93 603d e107 b93d 5a93 823c 2bf0 c53c
000002c0: c4e7 dabd 1a7a 85bd 99fb 9bbd 3d65 b53d
000002d0: 3749 95bd 5976 04bb bcdc 9b3d 4473 503c
000002e0: 4dd1 a6bd 2a0a 19bd 8b1d e03b f612 09be
000002f0: e87c cb3c 367e bd3c 1ab8 a23c 286b f2bd
00000300: 5f45 db3d 5119 023e 292f d83c 4acd 423d
00000310: 6fd1 673d fb76 f63d 0939 f83d 84aa 833d
00000320: cb25 ec3d f655 9e3d 2f30 71bd f174 d13c
00000330: 1bbf debc 8124 6e3d 2661 afbd a98f 4bbd
00000340: 8353 c23d 00ec a4bc 8d5e ba3d 88b8 6fbd
00000350: 9f01 c03b d7dc 023d 851a 6d3d cc33 cfbd
00000360: 2f82 8dbc cf15 b1bd 36f5 013e d08f 8ebc
00000370: 20e4 68bd eb3e d83d 44e6 0dbc dbd7 abbd
00000380: cfd5 5abd 5515 a1bd 50ba 3dbd 1ea8 d8bd
00000390: 2088 e23d 99bf c039 4ca4 33bd eeb2 a3bd
000003a0: 8e1f 40bd e1d9 573b 88de 62bc bdba 8bbc
000003b0: 3f8d 5b3d 4c50 903d f230 ff3d 2217 093d
000003c0: 6316 07be 5b4f 003e 00a1 c4bd fe89 ed3d
000003d0: 0235 693d c97e d83b 3e50 313d a949 873c
000003e0: 737d 5b3d 2f06 a8bd e0ee 2d3d 96cd 92bc
000003f0: 70ae 4fbd 5cd9 a03d fe4d 9b3c 5519 85bb

lstm.bias_hh_l0 f4 [256]
-0.06017709 0.059976835 0.10610959 -0.07587097 0.038829356 -0.016213387 0.092713475 0.03289156
-0.061044883 0.15044709 0.13417694 0.062226344 0.08918374 -0.110785864 -0.105101205 -0.07930206
-0.08067166 -0.018307775 0.15672605 -0.06976423 0.040261853 0.093326665 0.080058135 0.07190053
-0.088973425 -0.0059792767 0.04875732 0.151602 -0.021017963 -0.06893924 0.046950668 -0.07597043
0.095686994 -0.067713305 0.14816345 0.02426727 -0.032716196 -0.112404 0.057838846 0.015362571
0.084017456 0.05908914 0.08979996 -0.026285268 -0.04912355 0.026006836 0.04315069 0.09005702
-0.027574202 0.066607654 -0.061169416 0.10170061 -0.039268184 0.078937344 -0.060031522 0.006392728
-0.027560586 -0.098207965 0.059638347 0.07963734 -0.017248731 0.07592994 0.07074441 0.08042926
0.07673045 -0.015991144 0.09229727 0.008011621 -0.09164947 0.0061434186 -0.061733447 -0.097669914
-0.10327453 0.12988316 0.14077702 -0.11611176 -0.0131346965 -0.10504342 0.11070004 -0.022602499
0.13096368 0.0923606 -0.0657989 -0.10716737 0.07842091 0.018390719 0.07217002 0.05188816
-0.10129452 -0.12588087 -0.08453577 -0.032187156 0.016053865 0.07410507 -0.07886327 -0.0045022937
0.06702391 0.025755867 0.14789279 -0.12978895 0.036018495 0.104146704 -0.103010476 -0.13316125
0.10630416 -0.0999449 0.051879585 0.086215205 0.06956384 0.07274842 0.009447594 0.063576564
0.10035524 -0.04680829 -0.053007048 -0.07330609 0.039900605 0.062655956 0.030336138 0.11508621
0.03336781 0.07981551 -0.043875422 -0.019481342 -0.08383614 0.07295362 0.015992668 0.05923447
-0.1015858 -0.011481756 -0.109478764 0.12043086 -0.06162434 0.060569923 0.10564376 0.02780902
-0.10535498 -0.008626115 0.01779571 0.089629926 0.0021560364 0.008903871 -0.071672015 -0.09974685
0.014575956 -0.07672659 -0.031671703 -0.08845616 0.11431755 -0.10076744 0.06912238 -0.07447614
-0.09678463 -0.03200129 -0.030415155 0.0023863045 -0.07697506 0.061596114 0.01506518 0.10832676
-0.043063626 0.001843975 0.04646165 0.02179284 -0.087352134 0.043405846 -0.07131189 -0.08751404
-0.069468625 -0.020524675 -0.06035202 -0.02659928 0.111994706 0.10850134 -0.037841823 -0.060722977
-0.047821753 0.031606518 -0.046618316 0.010149164 -0.035639737 0.0740312 0.049261484 -0.096298575
-0.046373207 -0.02804655 0.082542345 -0.07004036 -0.09450082 0.043591883 -0.10050759 -0.031752747
-0.113010935 0.0064795944 0.03801092 -0.044159986 -0.061832786 0.084848605 0.03818322 0.03729817
-0.029577775 0.016220966 0.021905955 -0.11356338 0.11648549 -0.09762612 0.10536304 -0.11446242
0.14141847 0.12852271 0.0068605472 0.00814294 -0.04310468 -0.046881445 -0.054989718 0.011977497
0.040468663 -0.07341454 0.08882721 0.0027338264 0.051650982 0.024209911 0.01824028 0.027672848
0.12817258 -0.12159216 0.13343135 -0.06954514 -0.06732708 -0.024020076 0.0044819857 -0.022058021
0.08743354 0.03898763 0.06940578 0.15509072 0.08129146 -0.05021556 -0.035941634 -0.10324053
-0.10058424 0.12463363 -0.090774685 0.029790483 0.08056559 -0.057511806 -0.10466557 -0.10961952
-0.08632016 0.042489782 -0.01081383 0.0037172418 0.098063596 0.0776169 -0.051982585 -0.010214337
00000000: 417c 76bd 45aa 753d fc4f d93d 3d62 9bbd
00000010: 880b 1f3d f0d1 84bc 90e0 bd3d 4db9 063d
00000020: 330a 7abd cd0e 1a3e ae65 093e 0de1 7e3d
00000030: f7a5 b63d b3e3 e2bd 4d3f d7bd 1e69 a2bd
00000040: 2f37 a5bd 30fa 95bc cb7c 203e 8ce0 8ebd
00000050: 9de9 243d 0d22 bf3d 85f5 a33d 9640 933d
00000060: b337 b6bd cfed c3bb c1b5 473d 8e3d 1b3e
00000070: dd2d acbc 0430 8dbd 584f 403d 6396 9bbd
00000080: 8bf7 c33d 46ad 8abd 29b8 173e 27cc c63c
00000090: 6b01 06bd 1134 e6bd 6de8 6c3d 4bb3 7b3c
000000a0: 5811 ac3d 7407 723d 0be9 b73d 3454 d7bc
000000b0: c735 49bd 4a0c d53c c7be 303d d16f b83d
000000c0: 4be3 e1bc 9869 883d c88c 7abd 6948 d03d
000000d0: add7 20bd e7a9 a13d 9de3 75bd 177a d13b
000000e0: bdc6 e1bc 4221 c9bd 5747 743d e718 a33d
000000f0: 364d 8dbc 2881 9b3d 72e2 903d 19b8 a43d
00000100: db24 9d3d dcff 82bc 5a06 bd3d 2d43 033c
00000110: b8b2 bbbd bb4e c93b 36dc 7cbd 2a07 c8bd
00000120: 9981 d3bd 1700 053e da27 103e 01cc edbd
00000130: e932 57bc 0121 d7bd b4b6 e23d e028 b9bc
00000140: 581b 063e 8e27 bd3d 93c1 86bd 917a dbbd
00000150: 249b a03d 22a8 963c e0cd 933d ae88 543d
00000160: 8073 cfbd eae6 00be 1721 adbd aed6 03bd
00000170: 6583 833c 66c4 973d 1183 a1bd fa87 93bb
00000180: d543 893d f8fd d23c 3571 173e 65e7 04be
00000190: 2188 133d de4a d53d 28f7 d2bd 6c5b 08be
000001a0: ffb5 d93d e9af ccbd b07f 543d 9991 b03d
000001b0: 7d77 8e3d 20fd 943d 15ca 1a3c 6e34 823d
000001c0: 0c87 cd3d 0dba 3fbd eb1d 59bd 8121 96bd
000001d0: d16e 233d c451 803d 7e83 f83c 52b2 eb3d
000001e0: afac 083d 5076 a33d b7b6 33bd 5697 9fbc
000001f0: 48b2 abbd b568 953d 0e03 833c d89f 723d
00000200: 370c d0bd fa1d 3cbc 6736 e0bd 74a4 f63d
00000210: ce69 7cbd 2b18 783d c15b d83d becf e33c
00000220: 5ac4 d7bd 8c54 0dbc 4fc8 913c e58f b73d
00000230: 4a4c 0d3b 8be1 113c c7c8 92bd 1448 ccbd
00000240: fecf 6e3c d522 9dbd 30ba 01bd 8128 b5bd
00000250: 521f ea3d 295f cebd 0990 8d3d f286 98bd
00000260: 0537 c6bd c913 03bd 3429 f9bc 8c63 1c3b
00000270: 1aa5 9dbd 354c 7c3d f2d3 763c 6cda dd3d
00000280: 7c63 30bd 89b1 f13a 924e 3e3d e686 b23c
00000290: ade5 b2bd 54ca 313d f80b 92bd 903a b3bd
000002a0: 9145 8ebd 5d23 a8bc ae33 77bd bce6 d9bc
000002b0: 7b5d e53d f335 de3d 0700 1bbd a8b8 78bd
000002c0: bee0 43bd d675 013d d9f2 3ebd ae48 263c
000002d0: f9fa 11bd ab9d 973d 69c6 493d 3038 c5bd
000002e0: d5f1 3dbd e1c1 e5bc f60b a93d 5271 8fbd
000002f0: a589 c1bd 678d 323d ecd6 cdbd 2b0f 02bd
00000300: 4772 e7bd c752 d43b 57b1 1b3d 1ae1 34bd
00000310: 6044 7dbd 1bc5 ad3d 0266 1c3d f7c5 183d
00000320: 174d f2bc d5e1 843c 1e74 b33c eb93 e8bd
00000330: f28f ee3d 34f0 c7bd 94c8 d73d 466b eabd
00000340: 01d0 103e 759b 033e 71ce e03b f769 053c
00000350: 888e 30bd c206 40bd e63c 61bd 433d 443c
00000360: 78c2 253d 5d5a 96bd 0aeb b53d ff29 333b
00000370: fb8f 533d dd53 c63c a46c 953c 2bb2 e23c
00000380: ac3f 033e 4f05 f9bd 3aa2 083e af6d 8ebd
00000390: c8e2 89bd c0c5 c4bc 9fdd 923b 06b3 b4bc
000003a0: 5b10 b33d 7eb1 1f3d 9e24 8e3d 1ad0 1e3e
000003b0: 237c a63d d5ae 4dbd 8937 13bd c56f d3bd
000003c0: 1cff cdbd eb3f ff3d 14e8 b9bd 2c0b f43c
000003d0: 92ff a43d 8091 6bbd e75a d6bd 3380 e0bd
000003e0: a0c8 b0bd c409 2e3d 7e2c 31bc f89c 733b
000003f0: 91d5 c83d 9cf5 9e3d b1eb 54bd 095a 27bc

lstm.weight_ih_l1 f4 [256, 64]
-0.0091711795 -0.11954525 -0.14509441 0.11024 0.0044728825 -0.14011006 -0.09609714 0.083747186
0.09202865 0.15300678 0.016101487 -0.007866595 0.095378414 -0.0619738 -0.014580453 -0.012568002
0.06580968 0.07587873 0.02763357 -0.093853444 0.043286227 0.102378644 0.02703652 0.051592395
0.048458755 0.011288535 0.07396198 -0.014593358 -0.16538875 -0.066859335 0.14834179 0.124630265
-0.09714151 -0.02665049 0.024174139 0.099048056 -0.032315776 -0.070498824 0.08209416 0.07034558
0.06991395 0.075727925 -0.073909104 0.14646287 -0.092949174 -0.054659564 0.13312544 -0.0025939704
-0.12689339 -0.04341386 0.1039842 -0.049239893 0.07293794 0.029026812 -0.007816279 0.06572386
0.010919803 0.05581596 -0.03945359 -0.11453665 0.08740458 0.0139646605 0.08613179 0.006539085
0.019478781 -0.09222651 0.06909981 -0.09196256 -0.14741987 -0.0099971015 0.11156149 0.06557429
0.028707758 0.12184703 0.034510177 0.021141307 -0.09410443 -0.09577122 -0.113697775 0.05590993
-0.087268144 -0.09042474 -0.037421715 -0.11777332 0.07597033 -0.012320356 0.12494097 0.037711028
0.0702616 -0.058284923 -0.010585454 0.08040721 -0.13223052 -0.05327641 -0.006599467 0.11687386
-0.074832566 -0.03115925 0.12518196 -0.0449435 -0.04188894 0.06197869 0.14719559 0.014064323
0.015934097 -0.014867534 0.006808864 0.015004647 -0.076854 0.100166395 0.024327004 -0.018380169
0.08368624 0.03931134 -0.035808276 0.1329693 -0.0800011 0.110789225 0.016120099 -0.08544905
-0.04399457 -0.12444432 0.07956467 0.043357562 -0.013741981 -0.091438286 -0.04408965 0.09231643
0.11264744 -0.03977434 -0.105744176 0.093098685 -0.1428228 -0.028861193 -0.004350429 -0.14713371
0.047625445 -0.041624743 -0.14146188 -0.0277567 0.010633674 -0.094081335 -0.0071436614 -0.0023198782
0.068656154 -0.02973345 0.029571725 0.06164435 0.07109473 -0.008869387 0.11140474 -0.11514553
0.11332353 0.081144825 0.015860194 0.121261485 0.032018904 0.0726637 -0.0816107 -0.09563694
-0.13787456 -0.04766546 0.028590996 -0.05413953 -0.030162595 -0.1323897 0.019392513 0.06643292
-0.06931377 0.10105304 0.042607285 -0.06685991 -0.07019274 0.040724635 -0.022754181 0.14067492
-0.07626275 -0.06818205 0.12268796 -0.006350159 -0.114575274 -0.0068478356 -0.017835679 0.108332
0.06469292 -0.14058253 0.044430267 -0.032892067 0.11366597 0.0376662 0.040966462 -0.05398755
0.008119345 0.0032616984 0.018419914 -0.072533086 0.0032098899 0.023668867 0.108189724 0.023604725
-0.04496925 -0.09337135 -0.036378972 0.0571323 0.046215855 -0.019239334 -0.06656133 0.053029474
-0.10777202 0.04917233 -0.046256643 0.08088639 0.078879595 0.14224993 -0.05457664 -0.018123372
0.040847994 0.056298815 0.075205 -0.027880982 0.06446036 0.089236766 0.12026184 0.081419274
0.053098384 0.04552556 -0.01773801 -0.10786285 0.10152986 -0.07513101 -0.020670129 0.08306271
-0.07421939 -0.07140692 -0.13620514 -0.02974332 0.090789996 0.028437773 -0.08243609 0.10094396
0.061355922 -0.1569382 0.08187509 0.1412599 0.09328607 0.004315934 0.15719128 -0.016226131
-0.15649055 -0.1408174 -0.002193854 -0.027161287 -0.0067727612 -0.094064 -0.076406956 -0.10408068
00000000: b742 16bc 24d4 f4bd a193 14be 82c5 e13d
00000010: 4291 923b 0379 0fbe 94ce c4bd a583 ab3d
00000020: 8479 bc3d cfad 1c3e 44e7 833c e4e2 00bc
00000030: c255 c33d 3dd8 7dbd dae2 6ebc 05ea 4dbc
00000040: 3ac7 863d 4f66 9b3d cc5f e23c 3c36 c0bd
00000050: e64c 313d e5ab d13d b17b dd3c 8c52 533d
00000060: b07c 463d 8cf3 383c 6179 973d fb18 6fbc
00000070: ab5b 29be 8ced 88bd e9e6 173e 273e ff3d
00000080: 21f2 c6bd 2152 dabc d808 c63c b5d9 ca3d
00000090: 8c5d 04bd b061 90bd fc20 a83d 5811 903d
000000a0: 0c2f 8f3d 3e17 9b3d a85d 97bd 5dfa 153e
000000b0: 235c bebd b5e2 5fbd 0952 083e 9aff 29bb
000000c0: 57f0 01be bbd2 31bd abf5 d43d c5af 49bd
000000d0: 7d60 953d a3c9 ed3c da0f 00bc 3b9a 863d
000000e0: f9e8 323c 479f 643d 169a 21bd 3192 eabd
000000f0: 2c01 b33d 08cc 643c dd65 b03d d245 d63b
00000100: f791 9f3c 41e1 bcbd 3484 8d3d de56 bcbd
00000110: 3cf5 16be e2ca 23bc 5a7a e43d d04b 863d
00000120: 882c eb3c f08a f93d 8b5a 0d3d 8930 ad3c
00000130: d3b9 c0bd b423 c4bd 61da e8bd d001 653d
00000140: a4b9 b2bd 9b30 b9bd 8347 19bd 2333 f1bd
00000150: 5596 9b3d 52db 49bc 0de1 ff3d e176 1a3d
00000160: 50e5 8f3d 2cbc 6ebd 9d6e 2dbc 89ac a43d
00000170: 7067 07be 5d38 5abd 5740 d8bb 905b ef3d
00000180: d141 99bd af41 ffbc b32f 003e ad16 38bd
00000190: bd93 2bbd 5edd 7d3d 71ba 163e 0c6e 663c
000001a0: 3988 823c f596 73bc e41c df3b 0dd6 753c
000001b0: a165 9dbd 0a24 cd3d 6d49 c73c 0292 96bc
000001c0: b163 ab3d ed04 213d b3ab 12bd 1b29 083e
000001d0: 9ed7 a3bd 76e5 e23d 4c0e 843c e9ff aebd
000001e0: a633 34bd aadc febd cdf2 a23d b397 313d
000001f0: 0c26 61bc ff43 bbbd 5997 34bd 6510 bd3d
00000200: b3b3 e63d 6bea 22bd 6790 d8bd 86aa be3d
00000210: 2440 12be 4f6e ecbc 0b8e 8ebb 38aa 16be
00000220: e612 433d b57e 2abd 62db 10be 0562 e3bc
00000230: dd38 2e3c b7ad c0bd 6015 eabb 1909 18bb
00000240: 999b 8c3d 9093 f3bc 6740 f23c c97e 7c3d
00000250: 1d9a 913d e850 11bc 2b28 e43d 6bd1 ebbd
00000260: 2b16 e83d 422f a63d 3ded 813c f157 f83d
00000270: 4126 033d b5d0 943d 8323 a7bd 4ddd c3bd
00000280: fd2e 0dbe db3c 43bd aa37 ea3c 69c1 5dbd
00000290: 8c17 f7bc 2a91 07be 0cdd 9e3c fc0d 883d
000002a0: 61f4 8dbd e5f4 ce3d fa84 2e3d d9ed 88bd
000002b0: 36c1 8fbd e0ce 263d fa66 babc 160d 103e
000002c0: a52f 9cbd 08a3 8bbd d343 fb3d ff14 d0bb
000002d0: 71a6 eabd cf63 e0bb 211c 92bc 2bdd dd3d
000002e0: b97d 843d def4 0fbe 83fc 353d d5b9 06bd
000002f0: b4c9 e83d e047 1a3d 73cc 273d 0d22 5dbd
00000300: 0007 053c 38c2 553b 5ce5 963c 3a8c 94bd
00000310: 045d 523b 36e5 c13c 9392 dd3d b25e c13c
00000320: ad31 38bd 7a39 bfbd 1e02 15bd 8f03 6a3d
00000330: d64c 3d3d cf9b 9dbc 4e51 88bd 6f35 593d
00000340: 94b7 dcbd ed68 493d 9b77 3dbd c3a7 a53d
00000350: a08b a13d f7a9 113e c18b 5fbd 7777 94bc
00000360: 3a50 273d 9699 663d 1405 9a3d a866 e4bc
00000370: cb03 843d c4c1 b63d d74b f63d 26bf a63d
00000380: b17d 593d 0279 3a3d 4e4f 91bc 33e7 dcbd
00000390: e3ee cf3d 49de 99bd 6754 a9bc c81c aa3d
000003a0: 5600 98bd cb3d 92bd 5c79 0bbe 43a8 f3bc
000003b0: 1bf0 b93d 55f6 e83c 41d4 a8bd b5bb ce3d
000003c0: 5950 7b3d 68b4 20be 21ae a73d 6fa6 103e
000003d0: c40c bf3d ae6c 8d3b c0f6 203e aaec 84bc
000003e0: 0f3f 20be 7032 10be c3c6 0fbb 5981 debc
000003f0: 0aee ddbb a0a4 c0bd 407b 9cbd 4028 d5bd

lstm.weight_hh_l1 f4 [256, 64]
-0.020593932 -0.08368917 -0.090197995 0.09157997 0.05997317 0.07729872 -0.041924015 0.057422705
0.033569857 -0.10742394 -0.0141239045 -0.046140697 0.05547392 -0.0059191473 0.00035028355 -0.012101556
-0.029666636 0.094936006 -0.006596671 0.056320745 -0.015387318 0.0489741 -0.005909562 0.07458633
-0.053053066 0.05749533 -0.10445184 -0.030159319 -3.6626057e-05 -0.016096603 -0.051817905 -0.02323641
-0.05439585 0.01720331 0.12450735 0.09074216 -0.05299051 -0.044885974 -0.105718896 0.03601473
-0.056649636 -0.0047398144 -0.100117184 0.05168213 -0.014038842 0.08469737 0.042035427 -0.06440754
0.0732834 -0.040290315 -0.049158458 -0.09764468 0.13702707 -0.0024832743 0.058344513 0.049366456
0.018694881 -0.099349 -0.018441087 0.04638378 -0.027047578 -0.08217593 -0.082443714 0.017777948
-0.07724937 -0.012844628 0.04448051 0.0075155394 0.040210437 0.06126237 -0.09643315 -0.07185698
-0.07611098 -0.07160139 0.07254185 0.0075181876 -0.1388644 0.07804397 -0.0063543105 0.094492964
0.074873075 -0.04071078 0.019365791 -0.066898935 0.15590028 -0.045135215 0.07997383 -0.10413413
-0.071791396 -0.055013523 -0.08176115 -0.07475 -0.044844545 -0.130234 0.012377787 0.069682315
-0.042171147 -0.05675675 -0.02712748 0.015276766 -0.028515775 -0.11025238 -0.042365152 -0.09525775
-0.048612174 -0.033769652 0.08604068 -0.010471467 -0.109806076 -0.078439884 -0.10676637 -0.005913789
-0.06615279 0.106656365 -0.06764841 0.11839923 -0.09129156 0.0480017 -0.058713354 -0.04767787
0.06560541 -0.041332476 0.14029905 0.020186683 0.049369525 0.09370917 0.06731543 -0.08774979
0.024932288 0.07121231 -0.037373416 0.06785353 -0.049182087 0.08959893 0.08689418 -0.120458685
-0.06633852 -0.111270525 0.068841964 -0.009174009 -0.038276233 0.017704392 -0.114594325 0.119112454
0.008698087 -0.09008064 0.055213585 0.039069895 0.14859857 0.03365625 0.011402666 0.077418946
0.012083022 0.09566417 0.08745176 -0.012144566 0.04283187 0.0779255 -0.11002614 -0.032083664
0.11822992 0.0062439665 -0.0103434995 -0.06840978 -0.09575532 -0.0623035 0.0022054657 0.034032565
0.0041226447 -0.08831547 0.011781163 -0.064898886 -0.076799154 -0.06930344 -0.118953705 -0.053858396
0.16149297 0.004258266 0.017341772 0.015032132 -0.042122677 0.118649915 -0.108509354 0.021747174
0.073099144 -0.10953969 -0.07337074 0.06395173 -0.040485814 0.03723275 0.07502849 -0.116596684
0.09368493 0.10004012 0.1269357 -0.022289941 -0.103515804 -0.007163928 0.04669957 -0.08387135
0.08549667 -0.06520152 -0.028467301 0.017567484 -0.07329679 0.023170765 0.13503966 0.054452557
0.0103341555 0.09189914 0.10070499 0.097056605 -0.014181328 0.012097905 0.060425773 -0.06318209
-0.033050243 0.08120728 0.009838449 0.02638642 0.018108008 0.051901534 -0.0633989 0.078102134
0.0036364775 0.05815154 0.09138747 -0.018235823 0.081574 -0.027098905 -0.10287245 -0.18203883
-0.13923581 0.12590936 0.004586685 0.015879486 0.018371584 -0.06758624 0.10661049 -0.10719545
-0.041615624 -0.084052555 -0.046395242 0.116884604 -0.11391706 -0.11891373 -0.08081306 -0.04765674
-0.05802908 0.03943972 0.008980493 -0.1623514 0.083998784 0.030059291 0.10235024 0.08386155
00000000: 9bb4 a8bc 3a65 abbd bab9 b8bd 488e bb3d
00000010: 6da6 753d cb4e 9e3d 84b8 2bbd 1234 6b3d
00000020: 8c80 093d 1501 dcbd f367 67bc 07fe 3cbd
00000030: 9f38 633d 68f5 c1bb 43a6 b739 9b45 46bc
00000040: 7207 f3bc cf6d c23d e328 d8bb 95b0 663d
00000050: 171b 7cbc 1199 483d 00a5 c1bb b8c0 983d
00000060: 2c4e 59bd 3980 6b3d d9ea d5bd ad10 f7bc
00000070: ee9e 19b8 06dd 83bc 033f 54bd 495a bebc
00000080: 2fce 5ebd f5ed 8c3c b6fd fe3d 07d7 b93d
00000090: 940c 59bd 5bda 37bd 2683 d8bd 2e84 133d
000000a0: 7309 68bd 7250 9bbb 3d0a cdbd a4b0 533d
000000b0: 2c03 66bc d175 ad3d 572d 2c3d 1ae8 83bd
000000c0: 9b15 963d 7507 25bd 615a 49bd eff9 c7bd
000000d0: d350 0c3e 6ebe 22bb a8fa 6e3d 7b34 4a3d
000000e0: 0226 993c 7d77 cbbd c311 97bc ebfc 3d3d
000000f0: e292 ddbc db4b a8bd 40d8 a8bd 0fa3 913c
00000100: eb34 9ebd 4672 52bc 3231 363d ea44 f63b
00000110: b3b3 243d 40ee 7a3d be7e c5bd c129 93bd
00000120: 13e0 9bbd c0a3 92bd d290 943d 215b f63b
00000130: 7832 0ebe 84d5 9f3d d237 d0bb 8785 c13d
00000140: 0e57 993d 59c0 26bd 02a5 9e3c 4f02 89bd
00000150: 53a4 1f3e b4df 38bd 52c9 a33d 4644 d5bd
00000160: 5e07 93bd dc55 61bd 6472 a7bd 8716 99bd
00000170: eaae 37bd 105c 05be 34cc 4a3c 9ab5 8e3d
00000180: a7bb 2cbd c479 68bd 733a debc 674b 7a3c
00000190: ea99 e9bc 00cc e1bd 1587 2dbd 7f16 c3bd
000001a0: 8f1d 47bd 0c52 0abd 1936 b03d 8490 2bbc
000001b0: 02e2 e0bd 17a5 a0bd 54a8 dabd 75c8 c1bb
000001c0: 1d7b 87bd a76e da3d 408b 8abd 4c7b f23d
000001d0: 12f7 babd 6e9d 443d 6a7d 70bd df49 43bd
000001e0: 215c 863d 3e4c 29bd 8eaa 0f3e 8b5e a53c
000001f0: b337 4a3d 98ea bf3d acdc 893d 29b6 b3bd
00000200: cc3e cc3c c2d7 913d de14 19bd cbf6 8a3d
00000210: 2873 49bd a57f b73d 93f5 b13d 0bb3 f6bd
00000220: 7ddc 87bd cde1 e3bd 04fd 8c3d 954e 16bc
00000230: 8ac7 1cbd cd08 913c 6eb0 eabd 3bf1 f33d
00000240: 6c82 0e3c 337c b8bd a427 623d c107 203d
00000250: 392a 183e 23db 093d 3fd2 3a3c d38d 9e3d
00000260: def7 453c 94eb c33d e919 b33d 00fa 46bc
00000270: 7970 2f3d 6897 9f3d 6355 e1bd 296a 03bd
00000280: 8722 f23d 309a cc3b c877 29bc 6d1a 8cbd
00000290: 5d1b c4bd f431 7fbd 9389 103b bb65 0b3d
000002a0: 4017 873b bede b4bd c705 413c b5e9 84bd
000002b0: e048 9dbd f6ee 8dbd 009e f3bd 9f9a 5cbd
000002c0: 6a5e 253e ed88 8b3b 5510 8e3c 5549 763c
000002d0: d488 2cbd bafe f23d 273a debd 2127 b23c
000002e0: 01b5 953d 5856 e0bd 6643 96bd 20f9 823d
000002f0: 74d4 25bd 5e81 183d 89a8 993d 3eca eebd
00000300: e2dd bf3d d6e1 cc3d 6ffb 013e 6599 b6bc
00000310: 1800 d4bd 62bf eabb 0c48 3f3d bec4 abbd
00000320: e118 af3d 6088 85bd 4234 e9bc afe9 8f3c
00000330: a11c 96bd 9ed0 bd3c d647 0a3e a509 5f3d
00000340: 9750 293c 9e35 bc3d 6b3e ce3d 9dc5 c63d
00000350: cd58 68bc 4b36 463c 0481 773d 9d65 81bd
00000360: b15f 07bd 0150 a63d 7231 213c 5528 d83c
00000370: 3f57 943c b496 543d 48d7 81bd 03f4 9f3d
00000380: f851 6e3b 4f30 6e3d 5b29 bb3d 4b63 95bc
00000390: 4510 a73d 86fe ddbc cbae d2bd 6368 3abe
000003a0: d593 0ebe 62ee 003e e74b 963b b215 823c
000003b0: 0180 963c a86a 8abd 9a56 da3d 4a89 dbbd
000003c0: 2575 2abd bf23 acbd f008 3ebd 3261 ef3d
000003d0: 594d e9bd 0b89 f3bd 5181 a5bd b733 43bd
000003e0: e7af 6dbd 8b8b 213d eb22 133c 723f 26be
000003f0: 8e07 ac3d e73e f63c 019d d13d 9bbf ab3d

lstm.bias_ih_l1 f4 [256]
-0.09116775 0.06088498 0.022185024 0.07668496 0.057870656 0.0685474 -0.079405785 -0.0030920885
0.12269284 -0.0432329 -0.029732114 0.020587267 -0.0126265865 0.021909107 0.011259634 -0.05465145
-0.0031709645 0.039933197 0.015299578 -0.012843949 0.0413557 0.13142711 -0.08345371 0.05514313
0.08755227 -0.08064572 0.08917312 0.10805516 0.060185913 0.053878196 -0.0040938146 0.07871507
-0.044443704 -0.009076282 0.15394148 -0.0746106 -0.0042737965 -0.063538074 0.12174741 0.07821417
-0.033962786 0.025981449 0.026942383 0.061637923 0.050984364 0.12892525 -0.069491684 -0.054383583
0.13873185 -0.08425261 -0.0022082855 0.08855838 0.016611094 -0.10724722 -0.014961177 0.046562526
0.080755375 0.0738785 -0.067552045 -0.008476287 -0.015731232 0.119332954 0.13380106 -0.012893664
0.0495809 0.087676585 0.0068584685 -0.0040851417 0.0052258084 0.10435025 0.057771184 -0.01218124
0.048140556 0.029684553 -0.0853564 0.104066685 0.09169372 -0.096857935 0.114791915 0.06922772
-0.051509295 0.052188385 0.10955445 -0.11223518 -0.114336014 0.06806869 -0.116013415 0.07046512
0.022400293 0.049301814 0.08109281 0.10747083 -0.09542172 0.0013850629 -0.085571304 0.033532813
0.11311217 -0.11416456 0.06932097 0.07922658 0.088522516 -0.1000973 0.08830033 -0.08005355
-0.046840344 0.04705004 0.08557441 0.072472334 0.00092545693 0.06740726 0.04428048 0.10660491
0.11596069 0.11294123 0.03138194 0.022690043 -0.11646053 -0.09829793 0.08222781 0.03872147
-0.08001742 0.041250337 -0.101588696 0.036754344 0.086966164 0.05315491 0.03576668 -0.116062224
0.1186605 0.08317538 -0.014464501 -0.020347407 -0.02802807 0.107286155 -0.11424901 0.033122744
-0.116129905 0.11633677 -0.039606933 -0.0970309 -0.054970868 0.01430857 0.005536915 -0.052568045
-0.05368417 -0.058029857 0.10439672 0.098029144 0.06284628 -0.023154594 -0.10062516 -0.059182994
0.04399593 0.048695825 0.10484206 -0.06091242 -0.10896391 -0.020090586 -0.071762435 0.024217544
-0.055733945 0.016394287 -0.08999691 -0.002127205 0.06260619 -0.058857225 -0.11458699 -0.05590585
-0.07261787 -0.013600994 -0.047253497 0.11235987 0.04598041 -0.07598466 0.0952739 -0.114933
0.075628035 0.05713423 0.06321784 0.10607853 -0.025534092 -0.0013098164 -0.036105968 -0.021238629
-0.04528847 0.100253634 0.055288702 -0.03789487 -0.11127383 -0.022614097 0.009139845 -0.07850078
-0.11523836 -0.0390944 0.06079068 0.11435556 -0.018682893 -0.014394812 -0.072192445 0.045630224
0.082241006 -0.055640355 -0.082970195 0.0069123693 0.12899777 0.04147477 -0.060958732 -0.019056363
0.04929058 0.012185716 0.09684189 0.06518338 0.016759979 0.08899683 0.12583722 -0.008827094
-0.021447165 0.038915075 0.08099734 0.10163955 0.049868472 0.10142599 -0.015062141 -0.11946327
-0.061311193 -0.00479684 -0.06569356 0.05470768 -0.021015087 -0.026013287 -0.050604712 -0.058709968
-0.01747516 -0.028505675 0.06214113 -0.06616453 0.054447457 0.06217423 -0.008982651 -0.09565664
0.13630854 -0.04991796 0.08284633 0.13998628 -0.030206405 -0.08380877 -0.013340744 0.08954498
0.089914635 0.019015882 0.025627393 -0.086032555 0.065924324 0.00072176533 0.09015886 0.09065865
00000000: 28b6 babd 8762 793d 5ebd b53c 010d 9d3d
00000010: c809 6d3d 9462 8c3d 809f a2bd a3a4 4abb
00000020: 6246 fb3d fb14 31bd c390 f3bc a1a6 a83c
00000030: bedf 4ebc ba7a b33c 547a 383c 33da 5fbd
00000040: f5cf 4fbb fe90 233d 15ab 7a3c 6d6f 52bc
00000050: 9864 293d d494 063e c7e9 aabd c3dd 613d
00000060: 9b4e b33d 9529 a5bd 66a0 b63d 064c dd3d
00000070: 8185 763d 62af 5c3d 6825 86bb 5e35 a13d
00000080: 9a0a 36bd b0b4 14bc d6a2 1d3e 71cd 98bd
00000090: 340b 8cbb 4020 82bd b556 f93d c02e a03d
000000a0: 901c 0bbd 0cd7 d43c 46b6 dc3c 0c78 7c3d
000000b0: fbd4 503d fb04 043e a851 8ebd 52c1 5ebd
000000c0: b90f 0e3e a28c acbd e2b8 10bb 195e b53d
000000d0: fd13 883c 6ea4 dbbd b91f 75bc 59b8 3e3d
000000e0: 1363 a53d 9c4d 973d ba58 8abd 20e0 0abc
000000f0: c9de 80bc d664 f43d 2503 093e f23f 53bc
00000100: 5815 4b3d c88f b33d 01bd e03b a7dc 85bb
00000110: 423d ab3b 95b5 d53d 7aa1 6c3d d393 47bc
00000120: 082f 453d 052d f33c 56cf aebd ea20 d53d
00000130: ebc9 bb3d 745d c6bd 0618 eb3d 43c7 8d3d
00000140: 69fb 52bd 7dc3 553d 155e e03d 8fdb e5bd
00000150: 0029 eabd 9967 8b3d 7198 edbd 0450 903d
00000160: d280 b73c b3f0 493d fd13 a63d ab19 dc3d
00000170: 766c c3bd 008b b53a 0240 afbd b459 093d
00000180: 5aa7 e73d 1ccf e9bd 27f8 8d3d 8c41 a23d
00000190: 4b4b b53d d0ff ccbd ced6 b43d 1ef3 a3bd
000001a0: a9db 3fbd 8bb7 403d a341 af3d 606c 943d
000001b0: 5d9a 723a d10c 8a3d 735f 353d ad53 da3d
000001c0: cc7c ed3d bb4d e73d 598a 003d 78e0 b93c
000001d0: dc82 eebd 6d50 c9bd 0e67 a83d 679a 1e3d
000001e0: 2ce0 a3bd 1df6 283d bc0d d0bd b98b 163d
000001f0: 511b b23d f7b8 593d 1580 123d 08b2 edbd
00000200: 4704 f33d db57 aa3d 84fc 6cbc 9baf a6bc
00000210: 209b e5bc d8b8 db3d 63fb e9bd b7ab 073d
00000220: 84d5 edbd f941 ee3d e13a 22bd 23b8 c6bd
00000230: 2229 61bd 7e6e 6a3c 026f b53b 9751 57bd
00000240: efe3 5bbd b7b0 6dbd f3cd d53d 81c3 c83d
00000250: 8db5 803d b4ae bdbc 9014 cebd de69 72bd
00000260: 1435 343d 4675 473d 6fb7 d63d 4d7f 79bd
00000270: 7828 dfbd 0395 a4bc 2ff8 92bd df63 c63c
00000280: 4749 64bd 504d 863c 4d50 b8bd 9468 0bbb
00000290: ad37 803d 4614 71bd 95ac eabd 88fd 64bd
000002a0: aeb8 94bd b4d6 5ebc e28c 41bd ee1c e63d
000002b0: f455 3c3d d89d 9bbd f61e c33d fe61 ebbd
000002c0: dfe2 9a3d 9505 6a3d 5b78 813d b33f d93d
000002d0: df2c d1bc 25ae abba dae3 13bd a2fc adbc
000002e0: 6780 39bd c751 cd3d 6876 623d a737 1bbd
000002f0: 89e3 e3bd 3341 b9bc 4abf 153c 04c5 a0bd
00000300: 1702 ecbd 7321 20bd a6ff 783d 3f33 ea3d
00000310: de0c 99bc 38d8 6bbc a2d9 93bd c2e6 3a3d
00000320: f96d a83d 24e7 63bd 47ec a9bd 2881 e23b
00000330: fe17 043e 73e1 293d ddaf 79bd 171c 9cbc
00000340: ebe4 493d 99a6 473c 0a55 c63d dd7e 853d
00000350: 394c 893c f843 b63d 79db 003e 849f 10bc
00000360: f7b1 afbc 6a65 1f3d efe1 a53d 6528 d03d
00000370: e242 4c3d 6eb8 cf3d 33c7 76bc 29a9 f4bd
00000380: 7221 7bbd cf2e 9dbb 588a 86bd 2915 603d
00000390: d527 acbc d119 d5bc e346 4fbd dd79 70bd
000003a0: 1128 8fbc bc84 e9bc b387 7e3d 4581 87bd
000003b0: 4c04 5f3d 68aa 7e3d f82b 13bc a1e7 c3bd
000003c0: 7794 0b3e c676 4cbd 56ab a93d 9058 0f3e
000003d0: 6c73 f7bc efa3 abbd 2393 5abc 5c63 b73d
000003e0: 2a25 b83d 32c7 9b3c 8af0 d13c d631 b0bd
000003f0: 5503 873d da34 3d3a 35a5 b83d 3eab b93d
